#loc0 = loc(unknown)
module attributes {tf.versions = {bad_consumers = [], min_consumer = 12 : i32, producer = 987 : i32}, tf_saved_model.semantics}  {
  "tf_saved_model.global_tensor"() {is_mutable, sym_name = "__sm_node168___model.layer-1.kernel", tf_saved_model.exported_names = [], type = tensor<3x3x3x32xf32>, value = dense<5.000000e-01> : tensor<3x3x3x32xf32>} : () -> () loc(#loc0)
  "tf_saved_model.global_tensor"() {is_mutable, sym_name = "__sm_node176___model.layer-2.gamma", tf_saved_model.exported_names = [], type = tensor<32xf32>, value = dense<5.000000e-01> : tensor<32xf32>} : () -> () loc(#loc0)
  "tf_saved_model.global_tensor"() {is_mutable, sym_name = "__sm_node177___model.layer-2.beta", tf_saved_model.exported_names = [], type = tensor<32xf32>, value = dense<5.000000e-01> : tensor<32xf32>} : () -> () loc(#loc0)
  "tf_saved_model.global_tensor"() {is_mutable, sym_name = "__sm_node178___model.layer-2.moving_mean", tf_saved_model.exported_names = [], type = tensor<32xf32>, value = dense<5.000000e-01> : tensor<32xf32>} : () -> () loc(#loc0)
  "tf_saved_model.global_tensor"() {is_mutable, sym_name = "__sm_node179___model.layer-2.moving_variance", tf_saved_model.exported_names = [], type = tensor<32xf32>, value = dense<5.000000e-01> : tensor<32xf32>} : () -> () loc(#loc0)
  "tf_saved_model.global_tensor"() {is_mutable, sym_name = "__sm_node192___model.layer-4.depthwise_kernel", tf_saved_model.exported_names = [], type = tensor<3x3x32x1xf32>, value = dense<5.000000e-01> : tensor<3x3x32x1xf32>} : () -> () loc(#loc0)
  "tf_saved_model.global_tensor"() {is_mutable, sym_name = "__sm_node200___model.layer-5.gamma", tf_saved_model.exported_names = [], type = tensor<32xf32>, value = dense<5.000000e-01> : tensor<32xf32>} : () -> () loc(#loc0)
  "tf_saved_model.global_tensor"() {is_mutable, sym_name = "__sm_node201___model.layer-5.beta", tf_saved_model.exported_names = [], type = tensor<32xf32>, value = dense<5.000000e-01> : tensor<32xf32>} : () -> () loc(#loc0)
  "tf_saved_model.global_tensor"() {is_mutable, sym_name = "__sm_node202___model.layer-5.moving_mean", tf_saved_model.exported_names = [], type = tensor<32xf32>, value = dense<5.000000e-01> : tensor<32xf32>} : () -> () loc(#loc0)
  "tf_saved_model.global_tensor"() {is_mutable, sym_name = "__sm_node203___model.layer-5.moving_variance", tf_saved_model.exported_names = [], type = tensor<32xf32>, value = dense<5.000000e-01> : tensor<32xf32>} : () -> () loc(#loc0)
  "tf_saved_model.global_tensor"() {is_mutable, sym_name = "__sm_node216___model.layer-7.kernel", tf_saved_model.exported_names = [], type = tensor<1x1x32x16xf32>, value = dense<5.000000e-01> : tensor<1x1x32x16xf32>} : () -> () loc(#loc0)
  "tf_saved_model.global_tensor"() {is_mutable, sym_name = "__sm_node224___model.layer-8.gamma", tf_saved_model.exported_names = [], type = tensor<16xf32>, value = dense<5.000000e-01> : tensor<16xf32>} : () -> () loc(#loc0)
  "tf_saved_model.global_tensor"() {is_mutable, sym_name = "__sm_node225___model.layer-8.beta", tf_saved_model.exported_names = [], type = tensor<16xf32>, value = dense<5.000000e-01> : tensor<16xf32>} : () -> () loc(#loc0)
  "tf_saved_model.global_tensor"() {is_mutable, sym_name = "__sm_node226___model.layer-8.moving_mean", tf_saved_model.exported_names = [], type = tensor<16xf32>, value = dense<5.000000e-01> : tensor<16xf32>} : () -> () loc(#loc0)
  "tf_saved_model.global_tensor"() {is_mutable, sym_name = "__sm_node227___model.layer-8.moving_variance", tf_saved_model.exported_names = [], type = tensor<16xf32>, value = dense<5.000000e-01> : tensor<16xf32>} : () -> () loc(#loc0)
  "tf_saved_model.global_tensor"() {is_mutable, sym_name = "__sm_node234___model.layer-9.kernel", tf_saved_model.exported_names = [], type = tensor<1x1x16x96xf32>, value = dense<5.000000e-01> : tensor<1x1x16x96xf32>} : () -> () loc(#loc0)
  "tf_saved_model.global_tensor"() {is_mutable, sym_name = "__sm_node242___model.layer-10.gamma", tf_saved_model.exported_names = [], type = tensor<96xf32>, value = dense<5.000000e-01> : tensor<96xf32>} : () -> () loc(#loc0)
  "tf_saved_model.global_tensor"() {is_mutable, sym_name = "__sm_node243___model.layer-10.beta", tf_saved_model.exported_names = [], type = tensor<96xf32>, value = dense<5.000000e-01> : tensor<96xf32>} : () -> () loc(#loc0)
  "tf_saved_model.global_tensor"() {is_mutable, sym_name = "__sm_node244___model.layer-10.moving_mean", tf_saved_model.exported_names = [], type = tensor<96xf32>, value = dense<5.000000e-01> : tensor<96xf32>} : () -> () loc(#loc0)
  "tf_saved_model.global_tensor"() {is_mutable, sym_name = "__sm_node245___model.layer-10.moving_variance", tf_saved_model.exported_names = [], type = tensor<96xf32>, value = dense<5.000000e-01> : tensor<96xf32>} : () -> () loc(#loc0)
  "tf_saved_model.global_tensor"() {is_mutable, sym_name = "__sm_node264___model.layer-13.depthwise_kernel", tf_saved_model.exported_names = [], type = tensor<3x3x96x1xf32>, value = dense<5.000000e-01> : tensor<3x3x96x1xf32>} : () -> () loc(#loc0)
  "tf_saved_model.global_tensor"() {is_mutable, sym_name = "__sm_node272___model.layer-14.gamma", tf_saved_model.exported_names = [], type = tensor<96xf32>, value = dense<5.000000e-01> : tensor<96xf32>} : () -> () loc(#loc0)
  "tf_saved_model.global_tensor"() {is_mutable, sym_name = "__sm_node273___model.layer-14.beta", tf_saved_model.exported_names = [], type = tensor<96xf32>, value = dense<5.000000e-01> : tensor<96xf32>} : () -> () loc(#loc0)
  "tf_saved_model.global_tensor"() {is_mutable, sym_name = "__sm_node274___model.layer-14.moving_mean", tf_saved_model.exported_names = [], type = tensor<96xf32>, value = dense<5.000000e-01> : tensor<96xf32>} : () -> () loc(#loc0)
  "tf_saved_model.global_tensor"() {is_mutable, sym_name = "__sm_node275___model.layer-14.moving_variance", tf_saved_model.exported_names = [], type = tensor<96xf32>, value = dense<5.000000e-01> : tensor<96xf32>} : () -> () loc(#loc0)
  "tf_saved_model.global_tensor"() {is_mutable, sym_name = "__sm_node288___model.layer-16.kernel", tf_saved_model.exported_names = [], type = tensor<1x1x96x24xf32>, value = dense<5.000000e-01> : tensor<1x1x96x24xf32>} : () -> () loc(#loc0)
  "tf_saved_model.global_tensor"() {is_mutable, sym_name = "__sm_node296___model.layer-17.gamma", tf_saved_model.exported_names = [], type = tensor<24xf32>, value = dense<5.000000e-01> : tensor<24xf32>} : () -> () loc(#loc0)
  "tf_saved_model.global_tensor"() {is_mutable, sym_name = "__sm_node297___model.layer-17.beta", tf_saved_model.exported_names = [], type = tensor<24xf32>, value = dense<5.000000e-01> : tensor<24xf32>} : () -> () loc(#loc0)
  "tf_saved_model.global_tensor"() {is_mutable, sym_name = "__sm_node298___model.layer-17.moving_mean", tf_saved_model.exported_names = [], type = tensor<24xf32>, value = dense<5.000000e-01> : tensor<24xf32>} : () -> () loc(#loc0)
  "tf_saved_model.global_tensor"() {is_mutable, sym_name = "__sm_node299___model.layer-17.moving_variance", tf_saved_model.exported_names = [], type = tensor<24xf32>, value = dense<5.000000e-01> : tensor<24xf32>} : () -> () loc(#loc0)
  "tf_saved_model.global_tensor"() {is_mutable, sym_name = "__sm_node306___model.layer-18.kernel", tf_saved_model.exported_names = [], type = tensor<1x1x24x144xf32>, value = dense<5.000000e-01> : tensor<1x1x24x144xf32>} : () -> () loc(#loc0)
  "tf_saved_model.global_tensor"() {is_mutable, sym_name = "__sm_node314___model.layer-19.gamma", tf_saved_model.exported_names = [], type = tensor<144xf32>, value = dense<5.000000e-01> : tensor<144xf32>} : () -> () loc(#loc0)
  "tf_saved_model.global_tensor"() {is_mutable, sym_name = "__sm_node315___model.layer-19.beta", tf_saved_model.exported_names = [], type = tensor<144xf32>, value = dense<5.000000e-01> : tensor<144xf32>} : () -> () loc(#loc0)
  "tf_saved_model.global_tensor"() {is_mutable, sym_name = "__sm_node316___model.layer-19.moving_mean", tf_saved_model.exported_names = [], type = tensor<144xf32>, value = dense<5.000000e-01> : tensor<144xf32>} : () -> () loc(#loc0)
  "tf_saved_model.global_tensor"() {is_mutable, sym_name = "__sm_node317___model.layer-19.moving_variance", tf_saved_model.exported_names = [], type = tensor<144xf32>, value = dense<5.000000e-01> : tensor<144xf32>} : () -> () loc(#loc0)
  "tf_saved_model.global_tensor"() {is_mutable, sym_name = "__sm_node330___model.layer-21.depthwise_kernel", tf_saved_model.exported_names = [], type = tensor<3x3x144x1xf32>, value = dense<5.000000e-01> : tensor<3x3x144x1xf32>} : () -> () loc(#loc0)
  "tf_saved_model.global_tensor"() {is_mutable, sym_name = "__sm_node338___model.layer-22.gamma", tf_saved_model.exported_names = [], type = tensor<144xf32>, value = dense<5.000000e-01> : tensor<144xf32>} : () -> () loc(#loc0)
  "tf_saved_model.global_tensor"() {is_mutable, sym_name = "__sm_node339___model.layer-22.beta", tf_saved_model.exported_names = [], type = tensor<144xf32>, value = dense<5.000000e-01> : tensor<144xf32>} : () -> () loc(#loc0)
  "tf_saved_model.global_tensor"() {is_mutable, sym_name = "__sm_node340___model.layer-22.moving_mean", tf_saved_model.exported_names = [], type = tensor<144xf32>, value = dense<5.000000e-01> : tensor<144xf32>} : () -> () loc(#loc0)
  "tf_saved_model.global_tensor"() {is_mutable, sym_name = "__sm_node341___model.layer-22.moving_variance", tf_saved_model.exported_names = [], type = tensor<144xf32>, value = dense<5.000000e-01> : tensor<144xf32>} : () -> () loc(#loc0)
  "tf_saved_model.global_tensor"() {is_mutable, sym_name = "__sm_node354___model.layer-24.kernel", tf_saved_model.exported_names = [], type = tensor<1x1x144x24xf32>, value = dense<5.000000e-01> : tensor<1x1x144x24xf32>} : () -> () loc(#loc0)
  "tf_saved_model.global_tensor"() {is_mutable, sym_name = "__sm_node362___model.layer-25.gamma", tf_saved_model.exported_names = [], type = tensor<24xf32>, value = dense<5.000000e-01> : tensor<24xf32>} : () -> () loc(#loc0)
  "tf_saved_model.global_tensor"() {is_mutable, sym_name = "__sm_node363___model.layer-25.beta", tf_saved_model.exported_names = [], type = tensor<24xf32>, value = dense<5.000000e-01> : tensor<24xf32>} : () -> () loc(#loc0)
  "tf_saved_model.global_tensor"() {is_mutable, sym_name = "__sm_node364___model.layer-25.moving_mean", tf_saved_model.exported_names = [], type = tensor<24xf32>, value = dense<5.000000e-01> : tensor<24xf32>} : () -> () loc(#loc0)
  "tf_saved_model.global_tensor"() {is_mutable, sym_name = "__sm_node365___model.layer-25.moving_variance", tf_saved_model.exported_names = [], type = tensor<24xf32>, value = dense<5.000000e-01> : tensor<24xf32>} : () -> () loc(#loc0)
  "tf_saved_model.global_tensor"() {is_mutable, sym_name = "__sm_node378___model.layer-27.kernel", tf_saved_model.exported_names = [], type = tensor<1x1x24x144xf32>, value = dense<5.000000e-01> : tensor<1x1x24x144xf32>} : () -> () loc(#loc0)
  "tf_saved_model.global_tensor"() {is_mutable, sym_name = "__sm_node386___model.layer-28.gamma", tf_saved_model.exported_names = [], type = tensor<144xf32>, value = dense<5.000000e-01> : tensor<144xf32>} : () -> () loc(#loc0)
  "tf_saved_model.global_tensor"() {is_mutable, sym_name = "__sm_node387___model.layer-28.beta", tf_saved_model.exported_names = [], type = tensor<144xf32>, value = dense<5.000000e-01> : tensor<144xf32>} : () -> () loc(#loc0)
  "tf_saved_model.global_tensor"() {is_mutable, sym_name = "__sm_node388___model.layer-28.moving_mean", tf_saved_model.exported_names = [], type = tensor<144xf32>, value = dense<5.000000e-01> : tensor<144xf32>} : () -> () loc(#loc0)
  "tf_saved_model.global_tensor"() {is_mutable, sym_name = "__sm_node389___model.layer-28.moving_variance", tf_saved_model.exported_names = [], type = tensor<144xf32>, value = dense<5.000000e-01> : tensor<144xf32>} : () -> () loc(#loc0)
  "tf_saved_model.global_tensor"() {is_mutable, sym_name = "__sm_node408___model.layer-31.depthwise_kernel", tf_saved_model.exported_names = [], type = tensor<3x3x144x1xf32>, value = dense<5.000000e-01> : tensor<3x3x144x1xf32>} : () -> () loc(#loc0)
  "tf_saved_model.global_tensor"() {is_mutable, sym_name = "__sm_node416___model.layer-32.gamma", tf_saved_model.exported_names = [], type = tensor<144xf32>, value = dense<5.000000e-01> : tensor<144xf32>} : () -> () loc(#loc0)
  "tf_saved_model.global_tensor"() {is_mutable, sym_name = "__sm_node417___model.layer-32.beta", tf_saved_model.exported_names = [], type = tensor<144xf32>, value = dense<5.000000e-01> : tensor<144xf32>} : () -> () loc(#loc0)
  "tf_saved_model.global_tensor"() {is_mutable, sym_name = "__sm_node418___model.layer-32.moving_mean", tf_saved_model.exported_names = [], type = tensor<144xf32>, value = dense<5.000000e-01> : tensor<144xf32>} : () -> () loc(#loc0)
  "tf_saved_model.global_tensor"() {is_mutable, sym_name = "__sm_node419___model.layer-32.moving_variance", tf_saved_model.exported_names = [], type = tensor<144xf32>, value = dense<5.000000e-01> : tensor<144xf32>} : () -> () loc(#loc0)
  "tf_saved_model.global_tensor"() {is_mutable, sym_name = "__sm_node432___model.layer-34.kernel", tf_saved_model.exported_names = [], type = tensor<1x1x144x32xf32>, value = dense<5.000000e-01> : tensor<1x1x144x32xf32>} : () -> () loc(#loc0)
  "tf_saved_model.global_tensor"() {is_mutable, sym_name = "__sm_node440___model.layer-35.gamma", tf_saved_model.exported_names = [], type = tensor<32xf32>, value = dense<5.000000e-01> : tensor<32xf32>} : () -> () loc(#loc0)
  "tf_saved_model.global_tensor"() {is_mutable, sym_name = "__sm_node441___model.layer-35.beta", tf_saved_model.exported_names = [], type = tensor<32xf32>, value = dense<5.000000e-01> : tensor<32xf32>} : () -> () loc(#loc0)
  "tf_saved_model.global_tensor"() {is_mutable, sym_name = "__sm_node442___model.layer-35.moving_mean", tf_saved_model.exported_names = [], type = tensor<32xf32>, value = dense<5.000000e-01> : tensor<32xf32>} : () -> () loc(#loc0)
  "tf_saved_model.global_tensor"() {is_mutable, sym_name = "__sm_node443___model.layer-35.moving_variance", tf_saved_model.exported_names = [], type = tensor<32xf32>, value = dense<5.000000e-01> : tensor<32xf32>} : () -> () loc(#loc0)
  "tf_saved_model.global_tensor"() {is_mutable, sym_name = "__sm_node450___model.layer-36.kernel", tf_saved_model.exported_names = [], type = tensor<1x1x32x192xf32>, value = dense<5.000000e-01> : tensor<1x1x32x192xf32>} : () -> () loc(#loc0)
  "tf_saved_model.global_tensor"() {is_mutable, sym_name = "__sm_node458___model.layer-37.gamma", tf_saved_model.exported_names = [], type = tensor<192xf32>, value = dense<5.000000e-01> : tensor<192xf32>} : () -> () loc(#loc0)
  "tf_saved_model.global_tensor"() {is_mutable, sym_name = "__sm_node459___model.layer-37.beta", tf_saved_model.exported_names = [], type = tensor<192xf32>, value = dense<5.000000e-01> : tensor<192xf32>} : () -> () loc(#loc0)
  "tf_saved_model.global_tensor"() {is_mutable, sym_name = "__sm_node460___model.layer-37.moving_mean", tf_saved_model.exported_names = [], type = tensor<192xf32>, value = dense<5.000000e-01> : tensor<192xf32>} : () -> () loc(#loc0)
  "tf_saved_model.global_tensor"() {is_mutable, sym_name = "__sm_node461___model.layer-37.moving_variance", tf_saved_model.exported_names = [], type = tensor<192xf32>, value = dense<5.000000e-01> : tensor<192xf32>} : () -> () loc(#loc0)
  "tf_saved_model.global_tensor"() {is_mutable, sym_name = "__sm_node474___model.layer-39.depthwise_kernel", tf_saved_model.exported_names = [], type = tensor<3x3x192x1xf32>, value = dense<5.000000e-01> : tensor<3x3x192x1xf32>} : () -> () loc(#loc0)
  "tf_saved_model.global_tensor"() {is_mutable, sym_name = "__sm_node482___model.layer-40.gamma", tf_saved_model.exported_names = [], type = tensor<192xf32>, value = dense<5.000000e-01> : tensor<192xf32>} : () -> () loc(#loc0)
  "tf_saved_model.global_tensor"() {is_mutable, sym_name = "__sm_node483___model.layer-40.beta", tf_saved_model.exported_names = [], type = tensor<192xf32>, value = dense<5.000000e-01> : tensor<192xf32>} : () -> () loc(#loc0)
  "tf_saved_model.global_tensor"() {is_mutable, sym_name = "__sm_node484___model.layer-40.moving_mean", tf_saved_model.exported_names = [], type = tensor<192xf32>, value = dense<5.000000e-01> : tensor<192xf32>} : () -> () loc(#loc0)
  "tf_saved_model.global_tensor"() {is_mutable, sym_name = "__sm_node485___model.layer-40.moving_variance", tf_saved_model.exported_names = [], type = tensor<192xf32>, value = dense<5.000000e-01> : tensor<192xf32>} : () -> () loc(#loc0)
  "tf_saved_model.global_tensor"() {is_mutable, sym_name = "__sm_node498___model.layer-42.kernel", tf_saved_model.exported_names = [], type = tensor<1x1x192x32xf32>, value = dense<5.000000e-01> : tensor<1x1x192x32xf32>} : () -> () loc(#loc0)
  "tf_saved_model.global_tensor"() {is_mutable, sym_name = "__sm_node506___model.layer-43.gamma", tf_saved_model.exported_names = [], type = tensor<32xf32>, value = dense<5.000000e-01> : tensor<32xf32>} : () -> () loc(#loc0)
  "tf_saved_model.global_tensor"() {is_mutable, sym_name = "__sm_node507___model.layer-43.beta", tf_saved_model.exported_names = [], type = tensor<32xf32>, value = dense<5.000000e-01> : tensor<32xf32>} : () -> () loc(#loc0)
  "tf_saved_model.global_tensor"() {is_mutable, sym_name = "__sm_node508___model.layer-43.moving_mean", tf_saved_model.exported_names = [], type = tensor<32xf32>, value = dense<5.000000e-01> : tensor<32xf32>} : () -> () loc(#loc0)
  "tf_saved_model.global_tensor"() {is_mutable, sym_name = "__sm_node509___model.layer-43.moving_variance", tf_saved_model.exported_names = [], type = tensor<32xf32>, value = dense<5.000000e-01> : tensor<32xf32>} : () -> () loc(#loc0)
  "tf_saved_model.global_tensor"() {is_mutable, sym_name = "__sm_node522___model.layer-45.kernel", tf_saved_model.exported_names = [], type = tensor<1x1x32x192xf32>, value = dense<5.000000e-01> : tensor<1x1x32x192xf32>} : () -> () loc(#loc0)
  "tf_saved_model.global_tensor"() {is_mutable, sym_name = "__sm_node530___model.layer-46.gamma", tf_saved_model.exported_names = [], type = tensor<192xf32>, value = dense<5.000000e-01> : tensor<192xf32>} : () -> () loc(#loc0)
  "tf_saved_model.global_tensor"() {is_mutable, sym_name = "__sm_node531___model.layer-46.beta", tf_saved_model.exported_names = [], type = tensor<192xf32>, value = dense<5.000000e-01> : tensor<192xf32>} : () -> () loc(#loc0)
  "tf_saved_model.global_tensor"() {is_mutable, sym_name = "__sm_node532___model.layer-46.moving_mean", tf_saved_model.exported_names = [], type = tensor<192xf32>, value = dense<5.000000e-01> : tensor<192xf32>} : () -> () loc(#loc0)
  "tf_saved_model.global_tensor"() {is_mutable, sym_name = "__sm_node533___model.layer-46.moving_variance", tf_saved_model.exported_names = [], type = tensor<192xf32>, value = dense<5.000000e-01> : tensor<192xf32>} : () -> () loc(#loc0)
  "tf_saved_model.global_tensor"() {is_mutable, sym_name = "__sm_node546___model.layer-48.depthwise_kernel", tf_saved_model.exported_names = [], type = tensor<3x3x192x1xf32>, value = dense<5.000000e-01> : tensor<3x3x192x1xf32>} : () -> () loc(#loc0)
  "tf_saved_model.global_tensor"() {is_mutable, sym_name = "__sm_node554___model.layer-49.gamma", tf_saved_model.exported_names = [], type = tensor<192xf32>, value = dense<5.000000e-01> : tensor<192xf32>} : () -> () loc(#loc0)
  "tf_saved_model.global_tensor"() {is_mutable, sym_name = "__sm_node555___model.layer-49.beta", tf_saved_model.exported_names = [], type = tensor<192xf32>, value = dense<5.000000e-01> : tensor<192xf32>} : () -> () loc(#loc0)
  "tf_saved_model.global_tensor"() {is_mutable, sym_name = "__sm_node556___model.layer-49.moving_mean", tf_saved_model.exported_names = [], type = tensor<192xf32>, value = dense<5.000000e-01> : tensor<192xf32>} : () -> () loc(#loc0)
  "tf_saved_model.global_tensor"() {is_mutable, sym_name = "__sm_node557___model.layer-49.moving_variance", tf_saved_model.exported_names = [], type = tensor<192xf32>, value = dense<5.000000e-01> : tensor<192xf32>} : () -> () loc(#loc0)
  "tf_saved_model.global_tensor"() {is_mutable, sym_name = "__sm_node570___model.layer-51.kernel", tf_saved_model.exported_names = [], type = tensor<1x1x192x32xf32>, value = dense<5.000000e-01> : tensor<1x1x192x32xf32>} : () -> () loc(#loc0)
  "tf_saved_model.global_tensor"() {is_mutable, sym_name = "__sm_node578___model.layer-52.gamma", tf_saved_model.exported_names = [], type = tensor<32xf32>, value = dense<5.000000e-01> : tensor<32xf32>} : () -> () loc(#loc0)
  "tf_saved_model.global_tensor"() {is_mutable, sym_name = "__sm_node579___model.layer-52.beta", tf_saved_model.exported_names = [], type = tensor<32xf32>, value = dense<5.000000e-01> : tensor<32xf32>} : () -> () loc(#loc0)
  "tf_saved_model.global_tensor"() {is_mutable, sym_name = "__sm_node580___model.layer-52.moving_mean", tf_saved_model.exported_names = [], type = tensor<32xf32>, value = dense<5.000000e-01> : tensor<32xf32>} : () -> () loc(#loc0)
  "tf_saved_model.global_tensor"() {is_mutable, sym_name = "__sm_node581___model.layer-52.moving_variance", tf_saved_model.exported_names = [], type = tensor<32xf32>, value = dense<5.000000e-01> : tensor<32xf32>} : () -> () loc(#loc0)
  "tf_saved_model.global_tensor"() {is_mutable, sym_name = "__sm_node594___model.layer-54.kernel", tf_saved_model.exported_names = [], type = tensor<1x1x32x192xf32>, value = dense<5.000000e-01> : tensor<1x1x32x192xf32>} : () -> () loc(#loc0)
  "tf_saved_model.global_tensor"() {is_mutable, sym_name = "__sm_node602___model.layer-55.gamma", tf_saved_model.exported_names = [], type = tensor<192xf32>, value = dense<5.000000e-01> : tensor<192xf32>} : () -> () loc(#loc0)
  "tf_saved_model.global_tensor"() {is_mutable, sym_name = "__sm_node603___model.layer-55.beta", tf_saved_model.exported_names = [], type = tensor<192xf32>, value = dense<5.000000e-01> : tensor<192xf32>} : () -> () loc(#loc0)
  "tf_saved_model.global_tensor"() {is_mutable, sym_name = "__sm_node604___model.layer-55.moving_mean", tf_saved_model.exported_names = [], type = tensor<192xf32>, value = dense<5.000000e-01> : tensor<192xf32>} : () -> () loc(#loc0)
  "tf_saved_model.global_tensor"() {is_mutable, sym_name = "__sm_node605___model.layer-55.moving_variance", tf_saved_model.exported_names = [], type = tensor<192xf32>, value = dense<5.000000e-01> : tensor<192xf32>} : () -> () loc(#loc0)
  "tf_saved_model.global_tensor"() {is_mutable, sym_name = "__sm_node624___model.layer-58.depthwise_kernel", tf_saved_model.exported_names = [], type = tensor<3x3x192x1xf32>, value = dense<5.000000e-01> : tensor<3x3x192x1xf32>} : () -> () loc(#loc0)
  "tf_saved_model.global_tensor"() {is_mutable, sym_name = "__sm_node632___model.layer-59.gamma", tf_saved_model.exported_names = [], type = tensor<192xf32>, value = dense<5.000000e-01> : tensor<192xf32>} : () -> () loc(#loc0)
  "tf_saved_model.global_tensor"() {is_mutable, sym_name = "__sm_node633___model.layer-59.beta", tf_saved_model.exported_names = [], type = tensor<192xf32>, value = dense<5.000000e-01> : tensor<192xf32>} : () -> () loc(#loc0)
  "tf_saved_model.global_tensor"() {is_mutable, sym_name = "__sm_node634___model.layer-59.moving_mean", tf_saved_model.exported_names = [], type = tensor<192xf32>, value = dense<5.000000e-01> : tensor<192xf32>} : () -> () loc(#loc0)
  "tf_saved_model.global_tensor"() {is_mutable, sym_name = "__sm_node635___model.layer-59.moving_variance", tf_saved_model.exported_names = [], type = tensor<192xf32>, value = dense<5.000000e-01> : tensor<192xf32>} : () -> () loc(#loc0)
  "tf_saved_model.global_tensor"() {is_mutable, sym_name = "__sm_node648___model.layer-61.kernel", tf_saved_model.exported_names = [], type = tensor<1x1x192x64xf32>, value = dense<5.000000e-01> : tensor<1x1x192x64xf32>} : () -> () loc(#loc0)
  "tf_saved_model.global_tensor"() {is_mutable, sym_name = "__sm_node656___model.layer-62.gamma", tf_saved_model.exported_names = [], type = tensor<64xf32>, value = dense<5.000000e-01> : tensor<64xf32>} : () -> () loc(#loc0)
  "tf_saved_model.global_tensor"() {is_mutable, sym_name = "__sm_node657___model.layer-62.beta", tf_saved_model.exported_names = [], type = tensor<64xf32>, value = dense<5.000000e-01> : tensor<64xf32>} : () -> () loc(#loc0)
  "tf_saved_model.global_tensor"() {is_mutable, sym_name = "__sm_node658___model.layer-62.moving_mean", tf_saved_model.exported_names = [], type = tensor<64xf32>, value = dense<5.000000e-01> : tensor<64xf32>} : () -> () loc(#loc0)
  "tf_saved_model.global_tensor"() {is_mutable, sym_name = "__sm_node659___model.layer-62.moving_variance", tf_saved_model.exported_names = [], type = tensor<64xf32>, value = dense<5.000000e-01> : tensor<64xf32>} : () -> () loc(#loc0)
  "tf_saved_model.global_tensor"() {is_mutable, sym_name = "__sm_node666___model.layer-63.kernel", tf_saved_model.exported_names = [], type = tensor<1x1x64x384xf32>, value = dense<5.000000e-01> : tensor<1x1x64x384xf32>} : () -> () loc(#loc0)
  "tf_saved_model.global_tensor"() {is_mutable, sym_name = "__sm_node674___model.layer-64.gamma", tf_saved_model.exported_names = [], type = tensor<384xf32>, value = dense<5.000000e-01> : tensor<384xf32>} : () -> () loc(#loc0)
  "tf_saved_model.global_tensor"() {is_mutable, sym_name = "__sm_node675___model.layer-64.beta", tf_saved_model.exported_names = [], type = tensor<384xf32>, value = dense<5.000000e-01> : tensor<384xf32>} : () -> () loc(#loc0)
  "tf_saved_model.global_tensor"() {is_mutable, sym_name = "__sm_node676___model.layer-64.moving_mean", tf_saved_model.exported_names = [], type = tensor<384xf32>, value = dense<5.000000e-01> : tensor<384xf32>} : () -> () loc(#loc0)
  "tf_saved_model.global_tensor"() {is_mutable, sym_name = "__sm_node677___model.layer-64.moving_variance", tf_saved_model.exported_names = [], type = tensor<384xf32>, value = dense<5.000000e-01> : tensor<384xf32>} : () -> () loc(#loc0)
  "tf_saved_model.global_tensor"() {is_mutable, sym_name = "__sm_node690___model.layer-66.depthwise_kernel", tf_saved_model.exported_names = [], type = tensor<3x3x384x1xf32>, value = dense<5.000000e-01> : tensor<3x3x384x1xf32>} : () -> () loc(#loc0)
  "tf_saved_model.global_tensor"() {is_mutable, sym_name = "__sm_node698___model.layer-67.gamma", tf_saved_model.exported_names = [], type = tensor<384xf32>, value = dense<5.000000e-01> : tensor<384xf32>} : () -> () loc(#loc0)
  "tf_saved_model.global_tensor"() {is_mutable, sym_name = "__sm_node699___model.layer-67.beta", tf_saved_model.exported_names = [], type = tensor<384xf32>, value = dense<5.000000e-01> : tensor<384xf32>} : () -> () loc(#loc0)
  "tf_saved_model.global_tensor"() {is_mutable, sym_name = "__sm_node700___model.layer-67.moving_mean", tf_saved_model.exported_names = [], type = tensor<384xf32>, value = dense<5.000000e-01> : tensor<384xf32>} : () -> () loc(#loc0)
  "tf_saved_model.global_tensor"() {is_mutable, sym_name = "__sm_node701___model.layer-67.moving_variance", tf_saved_model.exported_names = [], type = tensor<384xf32>, value = dense<5.000000e-01> : tensor<384xf32>} : () -> () loc(#loc0)
  "tf_saved_model.global_tensor"() {is_mutable, sym_name = "__sm_node714___model.layer-69.kernel", tf_saved_model.exported_names = [], type = tensor<1x1x384x64xf32>, value = dense<5.000000e-01> : tensor<1x1x384x64xf32>} : () -> () loc(#loc0)
  "tf_saved_model.global_tensor"() {is_mutable, sym_name = "__sm_node722___model.layer-70.gamma", tf_saved_model.exported_names = [], type = tensor<64xf32>, value = dense<5.000000e-01> : tensor<64xf32>} : () -> () loc(#loc0)
  "tf_saved_model.global_tensor"() {is_mutable, sym_name = "__sm_node723___model.layer-70.beta", tf_saved_model.exported_names = [], type = tensor<64xf32>, value = dense<5.000000e-01> : tensor<64xf32>} : () -> () loc(#loc0)
  "tf_saved_model.global_tensor"() {is_mutable, sym_name = "__sm_node724___model.layer-70.moving_mean", tf_saved_model.exported_names = [], type = tensor<64xf32>, value = dense<5.000000e-01> : tensor<64xf32>} : () -> () loc(#loc0)
  "tf_saved_model.global_tensor"() {is_mutable, sym_name = "__sm_node725___model.layer-70.moving_variance", tf_saved_model.exported_names = [], type = tensor<64xf32>, value = dense<5.000000e-01> : tensor<64xf32>} : () -> () loc(#loc0)
  "tf_saved_model.global_tensor"() {is_mutable, sym_name = "__sm_node738___model.layer-72.kernel", tf_saved_model.exported_names = [], type = tensor<1x1x64x384xf32>, value = dense<5.000000e-01> : tensor<1x1x64x384xf32>} : () -> () loc(#loc0)
  "tf_saved_model.global_tensor"() {is_mutable, sym_name = "__sm_node746___model.layer-73.gamma", tf_saved_model.exported_names = [], type = tensor<384xf32>, value = dense<5.000000e-01> : tensor<384xf32>} : () -> () loc(#loc0)
  "tf_saved_model.global_tensor"() {is_mutable, sym_name = "__sm_node747___model.layer-73.beta", tf_saved_model.exported_names = [], type = tensor<384xf32>, value = dense<5.000000e-01> : tensor<384xf32>} : () -> () loc(#loc0)
  "tf_saved_model.global_tensor"() {is_mutable, sym_name = "__sm_node748___model.layer-73.moving_mean", tf_saved_model.exported_names = [], type = tensor<384xf32>, value = dense<5.000000e-01> : tensor<384xf32>} : () -> () loc(#loc0)
  "tf_saved_model.global_tensor"() {is_mutable, sym_name = "__sm_node749___model.layer-73.moving_variance", tf_saved_model.exported_names = [], type = tensor<384xf32>, value = dense<5.000000e-01> : tensor<384xf32>} : () -> () loc(#loc0)
  "tf_saved_model.global_tensor"() {is_mutable, sym_name = "__sm_node762___model.layer-75.depthwise_kernel", tf_saved_model.exported_names = [], type = tensor<3x3x384x1xf32>, value = dense<5.000000e-01> : tensor<3x3x384x1xf32>} : () -> () loc(#loc0)
  "tf_saved_model.global_tensor"() {is_mutable, sym_name = "__sm_node770___model.layer-76.gamma", tf_saved_model.exported_names = [], type = tensor<384xf32>, value = dense<5.000000e-01> : tensor<384xf32>} : () -> () loc(#loc0)
  "tf_saved_model.global_tensor"() {is_mutable, sym_name = "__sm_node771___model.layer-76.beta", tf_saved_model.exported_names = [], type = tensor<384xf32>, value = dense<5.000000e-01> : tensor<384xf32>} : () -> () loc(#loc0)
  "tf_saved_model.global_tensor"() {is_mutable, sym_name = "__sm_node772___model.layer-76.moving_mean", tf_saved_model.exported_names = [], type = tensor<384xf32>, value = dense<5.000000e-01> : tensor<384xf32>} : () -> () loc(#loc0)
  "tf_saved_model.global_tensor"() {is_mutable, sym_name = "__sm_node773___model.layer-76.moving_variance", tf_saved_model.exported_names = [], type = tensor<384xf32>, value = dense<5.000000e-01> : tensor<384xf32>} : () -> () loc(#loc0)
  "tf_saved_model.global_tensor"() {is_mutable, sym_name = "__sm_node786___model.layer-78.kernel", tf_saved_model.exported_names = [], type = tensor<1x1x384x64xf32>, value = dense<5.000000e-01> : tensor<1x1x384x64xf32>} : () -> () loc(#loc0)
  "tf_saved_model.global_tensor"() {is_mutable, sym_name = "__sm_node794___model.layer-79.gamma", tf_saved_model.exported_names = [], type = tensor<64xf32>, value = dense<5.000000e-01> : tensor<64xf32>} : () -> () loc(#loc0)
  "tf_saved_model.global_tensor"() {is_mutable, sym_name = "__sm_node795___model.layer-79.beta", tf_saved_model.exported_names = [], type = tensor<64xf32>, value = dense<5.000000e-01> : tensor<64xf32>} : () -> () loc(#loc0)
  "tf_saved_model.global_tensor"() {is_mutable, sym_name = "__sm_node796___model.layer-79.moving_mean", tf_saved_model.exported_names = [], type = tensor<64xf32>, value = dense<5.000000e-01> : tensor<64xf32>} : () -> () loc(#loc0)
  "tf_saved_model.global_tensor"() {is_mutable, sym_name = "__sm_node797___model.layer-79.moving_variance", tf_saved_model.exported_names = [], type = tensor<64xf32>, value = dense<5.000000e-01> : tensor<64xf32>} : () -> () loc(#loc0)
  "tf_saved_model.global_tensor"() {is_mutable, sym_name = "__sm_node810___model.layer-81.kernel", tf_saved_model.exported_names = [], type = tensor<1x1x64x384xf32>, value = dense<5.000000e-01> : tensor<1x1x64x384xf32>} : () -> () loc(#loc0)
  "tf_saved_model.global_tensor"() {is_mutable, sym_name = "__sm_node818___model.layer-82.gamma", tf_saved_model.exported_names = [], type = tensor<384xf32>, value = dense<5.000000e-01> : tensor<384xf32>} : () -> () loc(#loc0)
  "tf_saved_model.global_tensor"() {is_mutable, sym_name = "__sm_node819___model.layer-82.beta", tf_saved_model.exported_names = [], type = tensor<384xf32>, value = dense<5.000000e-01> : tensor<384xf32>} : () -> () loc(#loc0)
  "tf_saved_model.global_tensor"() {is_mutable, sym_name = "__sm_node820___model.layer-82.moving_mean", tf_saved_model.exported_names = [], type = tensor<384xf32>, value = dense<5.000000e-01> : tensor<384xf32>} : () -> () loc(#loc0)
  "tf_saved_model.global_tensor"() {is_mutable, sym_name = "__sm_node821___model.layer-82.moving_variance", tf_saved_model.exported_names = [], type = tensor<384xf32>, value = dense<5.000000e-01> : tensor<384xf32>} : () -> () loc(#loc0)
  "tf_saved_model.global_tensor"() {is_mutable, sym_name = "__sm_node834___model.layer-84.depthwise_kernel", tf_saved_model.exported_names = [], type = tensor<3x3x384x1xf32>, value = dense<5.000000e-01> : tensor<3x3x384x1xf32>} : () -> () loc(#loc0)
  "tf_saved_model.global_tensor"() {is_mutable, sym_name = "__sm_node842___model.layer-85.gamma", tf_saved_model.exported_names = [], type = tensor<384xf32>, value = dense<5.000000e-01> : tensor<384xf32>} : () -> () loc(#loc0)
  "tf_saved_model.global_tensor"() {is_mutable, sym_name = "__sm_node843___model.layer-85.beta", tf_saved_model.exported_names = [], type = tensor<384xf32>, value = dense<5.000000e-01> : tensor<384xf32>} : () -> () loc(#loc0)
  "tf_saved_model.global_tensor"() {is_mutable, sym_name = "__sm_node844___model.layer-85.moving_mean", tf_saved_model.exported_names = [], type = tensor<384xf32>, value = dense<5.000000e-01> : tensor<384xf32>} : () -> () loc(#loc0)
  "tf_saved_model.global_tensor"() {is_mutable, sym_name = "__sm_node845___model.layer-85.moving_variance", tf_saved_model.exported_names = [], type = tensor<384xf32>, value = dense<5.000000e-01> : tensor<384xf32>} : () -> () loc(#loc0)
  "tf_saved_model.global_tensor"() {is_mutable, sym_name = "__sm_node858___model.layer-87.kernel", tf_saved_model.exported_names = [], type = tensor<1x1x384x64xf32>, value = dense<5.000000e-01> : tensor<1x1x384x64xf32>} : () -> () loc(#loc0)
  "tf_saved_model.global_tensor"() {is_mutable, sym_name = "__sm_node866___model.layer-88.gamma", tf_saved_model.exported_names = [], type = tensor<64xf32>, value = dense<5.000000e-01> : tensor<64xf32>} : () -> () loc(#loc0)
  "tf_saved_model.global_tensor"() {is_mutable, sym_name = "__sm_node867___model.layer-88.beta", tf_saved_model.exported_names = [], type = tensor<64xf32>, value = dense<5.000000e-01> : tensor<64xf32>} : () -> () loc(#loc0)
  "tf_saved_model.global_tensor"() {is_mutable, sym_name = "__sm_node868___model.layer-88.moving_mean", tf_saved_model.exported_names = [], type = tensor<64xf32>, value = dense<5.000000e-01> : tensor<64xf32>} : () -> () loc(#loc0)
  "tf_saved_model.global_tensor"() {is_mutable, sym_name = "__sm_node869___model.layer-88.moving_variance", tf_saved_model.exported_names = [], type = tensor<64xf32>, value = dense<5.000000e-01> : tensor<64xf32>} : () -> () loc(#loc0)
  "tf_saved_model.global_tensor"() {is_mutable, sym_name = "__sm_node882___model.layer-90.kernel", tf_saved_model.exported_names = [], type = tensor<1x1x64x384xf32>, value = dense<5.000000e-01> : tensor<1x1x64x384xf32>} : () -> () loc(#loc0)
  "tf_saved_model.global_tensor"() {is_mutable, sym_name = "__sm_node890___model.layer-91.gamma", tf_saved_model.exported_names = [], type = tensor<384xf32>, value = dense<5.000000e-01> : tensor<384xf32>} : () -> () loc(#loc0)
  "tf_saved_model.global_tensor"() {is_mutable, sym_name = "__sm_node891___model.layer-91.beta", tf_saved_model.exported_names = [], type = tensor<384xf32>, value = dense<5.000000e-01> : tensor<384xf32>} : () -> () loc(#loc0)
  "tf_saved_model.global_tensor"() {is_mutable, sym_name = "__sm_node892___model.layer-91.moving_mean", tf_saved_model.exported_names = [], type = tensor<384xf32>, value = dense<5.000000e-01> : tensor<384xf32>} : () -> () loc(#loc0)
  "tf_saved_model.global_tensor"() {is_mutable, sym_name = "__sm_node893___model.layer-91.moving_variance", tf_saved_model.exported_names = [], type = tensor<384xf32>, value = dense<5.000000e-01> : tensor<384xf32>} : () -> () loc(#loc0)
  "tf_saved_model.global_tensor"() {is_mutable, sym_name = "__sm_node906___model.layer-93.depthwise_kernel", tf_saved_model.exported_names = [], type = tensor<3x3x384x1xf32>, value = dense<5.000000e-01> : tensor<3x3x384x1xf32>} : () -> () loc(#loc0)
  "tf_saved_model.global_tensor"() {is_mutable, sym_name = "__sm_node914___model.layer-94.gamma", tf_saved_model.exported_names = [], type = tensor<384xf32>, value = dense<5.000000e-01> : tensor<384xf32>} : () -> () loc(#loc0)
  "tf_saved_model.global_tensor"() {is_mutable, sym_name = "__sm_node915___model.layer-94.beta", tf_saved_model.exported_names = [], type = tensor<384xf32>, value = dense<5.000000e-01> : tensor<384xf32>} : () -> () loc(#loc0)
  "tf_saved_model.global_tensor"() {is_mutable, sym_name = "__sm_node916___model.layer-94.moving_mean", tf_saved_model.exported_names = [], type = tensor<384xf32>, value = dense<5.000000e-01> : tensor<384xf32>} : () -> () loc(#loc0)
  "tf_saved_model.global_tensor"() {is_mutable, sym_name = "__sm_node917___model.layer-94.moving_variance", tf_saved_model.exported_names = [], type = tensor<384xf32>, value = dense<5.000000e-01> : tensor<384xf32>} : () -> () loc(#loc0)
  "tf_saved_model.global_tensor"() {is_mutable, sym_name = "__sm_node930___model.layer-96.kernel", tf_saved_model.exported_names = [], type = tensor<1x1x384x96xf32>, value = dense<5.000000e-01> : tensor<1x1x384x96xf32>} : () -> () loc(#loc0)
  "tf_saved_model.global_tensor"() {is_mutable, sym_name = "__sm_node938___model.layer-97.gamma", tf_saved_model.exported_names = [], type = tensor<96xf32>, value = dense<5.000000e-01> : tensor<96xf32>} : () -> () loc(#loc0)
  "tf_saved_model.global_tensor"() {is_mutable, sym_name = "__sm_node939___model.layer-97.beta", tf_saved_model.exported_names = [], type = tensor<96xf32>, value = dense<5.000000e-01> : tensor<96xf32>} : () -> () loc(#loc0)
  "tf_saved_model.global_tensor"() {is_mutable, sym_name = "__sm_node940___model.layer-97.moving_mean", tf_saved_model.exported_names = [], type = tensor<96xf32>, value = dense<5.000000e-01> : tensor<96xf32>} : () -> () loc(#loc0)
  "tf_saved_model.global_tensor"() {is_mutable, sym_name = "__sm_node941___model.layer-97.moving_variance", tf_saved_model.exported_names = [], type = tensor<96xf32>, value = dense<5.000000e-01> : tensor<96xf32>} : () -> () loc(#loc0)
  "tf_saved_model.global_tensor"() {is_mutable, sym_name = "__sm_node948___model.layer-98.kernel", tf_saved_model.exported_names = [], type = tensor<1x1x96x576xf32>, value = dense<5.000000e-01> : tensor<1x1x96x576xf32>} : () -> () loc(#loc0)
  "tf_saved_model.global_tensor"() {is_mutable, sym_name = "__sm_node956___model.layer-99.gamma", tf_saved_model.exported_names = [], type = tensor<576xf32>, value = dense<5.000000e-01> : tensor<576xf32>} : () -> () loc(#loc0)
  "tf_saved_model.global_tensor"() {is_mutable, sym_name = "__sm_node957___model.layer-99.beta", tf_saved_model.exported_names = [], type = tensor<576xf32>, value = dense<5.000000e-01> : tensor<576xf32>} : () -> () loc(#loc0)
  "tf_saved_model.global_tensor"() {is_mutable, sym_name = "__sm_node958___model.layer-99.moving_mean", tf_saved_model.exported_names = [], type = tensor<576xf32>, value = dense<5.000000e-01> : tensor<576xf32>} : () -> () loc(#loc0)
  "tf_saved_model.global_tensor"() {is_mutable, sym_name = "__sm_node959___model.layer-99.moving_variance", tf_saved_model.exported_names = [], type = tensor<576xf32>, value = dense<5.000000e-01> : tensor<576xf32>} : () -> () loc(#loc0)
  "tf_saved_model.global_tensor"() {is_mutable, sym_name = "__sm_node972___model.layer-101.depthwise_kernel", tf_saved_model.exported_names = [], type = tensor<3x3x576x1xf32>, value = dense<5.000000e-01> : tensor<3x3x576x1xf32>} : () -> () loc(#loc0)
  "tf_saved_model.global_tensor"() {is_mutable, sym_name = "__sm_node980___model.layer-102.gamma", tf_saved_model.exported_names = [], type = tensor<576xf32>, value = dense<5.000000e-01> : tensor<576xf32>} : () -> () loc(#loc0)
  "tf_saved_model.global_tensor"() {is_mutable, sym_name = "__sm_node981___model.layer-102.beta", tf_saved_model.exported_names = [], type = tensor<576xf32>, value = dense<5.000000e-01> : tensor<576xf32>} : () -> () loc(#loc0)
  "tf_saved_model.global_tensor"() {is_mutable, sym_name = "__sm_node982___model.layer-102.moving_mean", tf_saved_model.exported_names = [], type = tensor<576xf32>, value = dense<5.000000e-01> : tensor<576xf32>} : () -> () loc(#loc0)
  "tf_saved_model.global_tensor"() {is_mutable, sym_name = "__sm_node983___model.layer-102.moving_variance", tf_saved_model.exported_names = [], type = tensor<576xf32>, value = dense<5.000000e-01> : tensor<576xf32>} : () -> () loc(#loc0)
  "tf_saved_model.global_tensor"() {is_mutable, sym_name = "__sm_node996___model.layer-104.kernel", tf_saved_model.exported_names = [], type = tensor<1x1x576x96xf32>, value = dense<5.000000e-01> : tensor<1x1x576x96xf32>} : () -> () loc(#loc0)
  "tf_saved_model.global_tensor"() {is_mutable, sym_name = "__sm_node1004___model.layer-105.gamma", tf_saved_model.exported_names = [], type = tensor<96xf32>, value = dense<5.000000e-01> : tensor<96xf32>} : () -> () loc(#loc0)
  "tf_saved_model.global_tensor"() {is_mutable, sym_name = "__sm_node1005___model.layer-105.beta", tf_saved_model.exported_names = [], type = tensor<96xf32>, value = dense<5.000000e-01> : tensor<96xf32>} : () -> () loc(#loc0)
  "tf_saved_model.global_tensor"() {is_mutable, sym_name = "__sm_node1006___model.layer-105.moving_mean", tf_saved_model.exported_names = [], type = tensor<96xf32>, value = dense<5.000000e-01> : tensor<96xf32>} : () -> () loc(#loc0)
  "tf_saved_model.global_tensor"() {is_mutable, sym_name = "__sm_node1007___model.layer-105.moving_variance", tf_saved_model.exported_names = [], type = tensor<96xf32>, value = dense<5.000000e-01> : tensor<96xf32>} : () -> () loc(#loc0)
  "tf_saved_model.global_tensor"() {is_mutable, sym_name = "__sm_node1020___model.layer-107.kernel", tf_saved_model.exported_names = [], type = tensor<1x1x96x576xf32>, value = dense<5.000000e-01> : tensor<1x1x96x576xf32>} : () -> () loc(#loc0)
  "tf_saved_model.global_tensor"() {is_mutable, sym_name = "__sm_node1028___model.layer-108.gamma", tf_saved_model.exported_names = [], type = tensor<576xf32>, value = dense<5.000000e-01> : tensor<576xf32>} : () -> () loc(#loc0)
  "tf_saved_model.global_tensor"() {is_mutable, sym_name = "__sm_node1029___model.layer-108.beta", tf_saved_model.exported_names = [], type = tensor<576xf32>, value = dense<5.000000e-01> : tensor<576xf32>} : () -> () loc(#loc0)
  "tf_saved_model.global_tensor"() {is_mutable, sym_name = "__sm_node1030___model.layer-108.moving_mean", tf_saved_model.exported_names = [], type = tensor<576xf32>, value = dense<5.000000e-01> : tensor<576xf32>} : () -> () loc(#loc0)
  "tf_saved_model.global_tensor"() {is_mutable, sym_name = "__sm_node1031___model.layer-108.moving_variance", tf_saved_model.exported_names = [], type = tensor<576xf32>, value = dense<5.000000e-01> : tensor<576xf32>} : () -> () loc(#loc0)
  "tf_saved_model.global_tensor"() {is_mutable, sym_name = "__sm_node1044___model.layer-110.depthwise_kernel", tf_saved_model.exported_names = [], type = tensor<3x3x576x1xf32>, value = dense<5.000000e-01> : tensor<3x3x576x1xf32>} : () -> () loc(#loc0)
  "tf_saved_model.global_tensor"() {is_mutable, sym_name = "__sm_node1052___model.layer-111.gamma", tf_saved_model.exported_names = [], type = tensor<576xf32>, value = dense<5.000000e-01> : tensor<576xf32>} : () -> () loc(#loc0)
  "tf_saved_model.global_tensor"() {is_mutable, sym_name = "__sm_node1053___model.layer-111.beta", tf_saved_model.exported_names = [], type = tensor<576xf32>, value = dense<5.000000e-01> : tensor<576xf32>} : () -> () loc(#loc0)
  "tf_saved_model.global_tensor"() {is_mutable, sym_name = "__sm_node1054___model.layer-111.moving_mean", tf_saved_model.exported_names = [], type = tensor<576xf32>, value = dense<5.000000e-01> : tensor<576xf32>} : () -> () loc(#loc0)
  "tf_saved_model.global_tensor"() {is_mutable, sym_name = "__sm_node1055___model.layer-111.moving_variance", tf_saved_model.exported_names = [], type = tensor<576xf32>, value = dense<5.000000e-01> : tensor<576xf32>} : () -> () loc(#loc0)
  "tf_saved_model.global_tensor"() {is_mutable, sym_name = "__sm_node1068___model.layer-113.kernel", tf_saved_model.exported_names = [], type = tensor<1x1x576x96xf32>, value = dense<5.000000e-01> : tensor<1x1x576x96xf32>} : () -> () loc(#loc0)
  "tf_saved_model.global_tensor"() {is_mutable, sym_name = "__sm_node1076___model.layer-114.gamma", tf_saved_model.exported_names = [], type = tensor<96xf32>, value = dense<5.000000e-01> : tensor<96xf32>} : () -> () loc(#loc0)
  "tf_saved_model.global_tensor"() {is_mutable, sym_name = "__sm_node1077___model.layer-114.beta", tf_saved_model.exported_names = [], type = tensor<96xf32>, value = dense<5.000000e-01> : tensor<96xf32>} : () -> () loc(#loc0)
  "tf_saved_model.global_tensor"() {is_mutable, sym_name = "__sm_node1078___model.layer-114.moving_mean", tf_saved_model.exported_names = [], type = tensor<96xf32>, value = dense<5.000000e-01> : tensor<96xf32>} : () -> () loc(#loc0)
  "tf_saved_model.global_tensor"() {is_mutable, sym_name = "__sm_node1079___model.layer-114.moving_variance", tf_saved_model.exported_names = [], type = tensor<96xf32>, value = dense<5.000000e-01> : tensor<96xf32>} : () -> () loc(#loc0)
  "tf_saved_model.global_tensor"() {is_mutable, sym_name = "__sm_node1092___model.layer-116.kernel", tf_saved_model.exported_names = [], type = tensor<1x1x96x576xf32>, value = dense<5.000000e-01> : tensor<1x1x96x576xf32>} : () -> () loc(#loc0)
  "tf_saved_model.global_tensor"() {is_mutable, sym_name = "__sm_node1100___model.layer-117.gamma", tf_saved_model.exported_names = [], type = tensor<576xf32>, value = dense<5.000000e-01> : tensor<576xf32>} : () -> () loc(#loc0)
  "tf_saved_model.global_tensor"() {is_mutable, sym_name = "__sm_node1101___model.layer-117.beta", tf_saved_model.exported_names = [], type = tensor<576xf32>, value = dense<5.000000e-01> : tensor<576xf32>} : () -> () loc(#loc0)
  "tf_saved_model.global_tensor"() {is_mutable, sym_name = "__sm_node1102___model.layer-117.moving_mean", tf_saved_model.exported_names = [], type = tensor<576xf32>, value = dense<5.000000e-01> : tensor<576xf32>} : () -> () loc(#loc0)
  "tf_saved_model.global_tensor"() {is_mutable, sym_name = "__sm_node1103___model.layer-117.moving_variance", tf_saved_model.exported_names = [], type = tensor<576xf32>, value = dense<5.000000e-01> : tensor<576xf32>} : () -> () loc(#loc0)
  "tf_saved_model.global_tensor"() {is_mutable, sym_name = "__sm_node1122___model.layer-120.depthwise_kernel", tf_saved_model.exported_names = [], type = tensor<3x3x576x1xf32>, value = dense<5.000000e-01> : tensor<3x3x576x1xf32>} : () -> () loc(#loc0)
  "tf_saved_model.global_tensor"() {is_mutable, sym_name = "__sm_node1130___model.layer-121.gamma", tf_saved_model.exported_names = [], type = tensor<576xf32>, value = dense<5.000000e-01> : tensor<576xf32>} : () -> () loc(#loc0)
  "tf_saved_model.global_tensor"() {is_mutable, sym_name = "__sm_node1131___model.layer-121.beta", tf_saved_model.exported_names = [], type = tensor<576xf32>, value = dense<5.000000e-01> : tensor<576xf32>} : () -> () loc(#loc0)
  "tf_saved_model.global_tensor"() {is_mutable, sym_name = "__sm_node1132___model.layer-121.moving_mean", tf_saved_model.exported_names = [], type = tensor<576xf32>, value = dense<5.000000e-01> : tensor<576xf32>} : () -> () loc(#loc0)
  "tf_saved_model.global_tensor"() {is_mutable, sym_name = "__sm_node1133___model.layer-121.moving_variance", tf_saved_model.exported_names = [], type = tensor<576xf32>, value = dense<5.000000e-01> : tensor<576xf32>} : () -> () loc(#loc0)
  "tf_saved_model.global_tensor"() {is_mutable, sym_name = "__sm_node1146___model.layer-123.kernel", tf_saved_model.exported_names = [], type = tensor<1x1x576x160xf32>, value = dense<5.000000e-01> : tensor<1x1x576x160xf32>} : () -> () loc(#loc0)
  "tf_saved_model.global_tensor"() {is_mutable, sym_name = "__sm_node1154___model.layer-124.gamma", tf_saved_model.exported_names = [], type = tensor<160xf32>, value = dense<5.000000e-01> : tensor<160xf32>} : () -> () loc(#loc0)
  "tf_saved_model.global_tensor"() {is_mutable, sym_name = "__sm_node1155___model.layer-124.beta", tf_saved_model.exported_names = [], type = tensor<160xf32>, value = dense<5.000000e-01> : tensor<160xf32>} : () -> () loc(#loc0)
  "tf_saved_model.global_tensor"() {is_mutable, sym_name = "__sm_node1156___model.layer-124.moving_mean", tf_saved_model.exported_names = [], type = tensor<160xf32>, value = dense<5.000000e-01> : tensor<160xf32>} : () -> () loc(#loc0)
  "tf_saved_model.global_tensor"() {is_mutable, sym_name = "__sm_node1157___model.layer-124.moving_variance", tf_saved_model.exported_names = [], type = tensor<160xf32>, value = dense<5.000000e-01> : tensor<160xf32>} : () -> () loc(#loc0)
  "tf_saved_model.global_tensor"() {is_mutable, sym_name = "__sm_node1164___model.layer-125.kernel", tf_saved_model.exported_names = [], type = tensor<1x1x160x960xf32>, value = dense<5.000000e-01> : tensor<1x1x160x960xf32>} : () -> () loc(#loc0)
  "tf_saved_model.global_tensor"() {is_mutable, sym_name = "__sm_node1172___model.layer-126.gamma", tf_saved_model.exported_names = [], type = tensor<960xf32>, value = dense<5.000000e-01> : tensor<960xf32>} : () -> () loc(#loc0)
  "tf_saved_model.global_tensor"() {is_mutable, sym_name = "__sm_node1173___model.layer-126.beta", tf_saved_model.exported_names = [], type = tensor<960xf32>, value = dense<5.000000e-01> : tensor<960xf32>} : () -> () loc(#loc0)
  "tf_saved_model.global_tensor"() {is_mutable, sym_name = "__sm_node1174___model.layer-126.moving_mean", tf_saved_model.exported_names = [], type = tensor<960xf32>, value = dense<5.000000e-01> : tensor<960xf32>} : () -> () loc(#loc0)
  "tf_saved_model.global_tensor"() {is_mutable, sym_name = "__sm_node1175___model.layer-126.moving_variance", tf_saved_model.exported_names = [], type = tensor<960xf32>, value = dense<5.000000e-01> : tensor<960xf32>} : () -> () loc(#loc0)
  "tf_saved_model.global_tensor"() {is_mutable, sym_name = "__sm_node1188___model.layer-128.depthwise_kernel", tf_saved_model.exported_names = [], type = tensor<3x3x960x1xf32>, value = dense<5.000000e-01> : tensor<3x3x960x1xf32>} : () -> () loc(#loc0)
  "tf_saved_model.global_tensor"() {is_mutable, sym_name = "__sm_node1196___model.layer-129.gamma", tf_saved_model.exported_names = [], type = tensor<960xf32>, value = dense<5.000000e-01> : tensor<960xf32>} : () -> () loc(#loc0)
  "tf_saved_model.global_tensor"() {is_mutable, sym_name = "__sm_node1197___model.layer-129.beta", tf_saved_model.exported_names = [], type = tensor<960xf32>, value = dense<5.000000e-01> : tensor<960xf32>} : () -> () loc(#loc0)
  "tf_saved_model.global_tensor"() {is_mutable, sym_name = "__sm_node1198___model.layer-129.moving_mean", tf_saved_model.exported_names = [], type = tensor<960xf32>, value = dense<5.000000e-01> : tensor<960xf32>} : () -> () loc(#loc0)
  "tf_saved_model.global_tensor"() {is_mutable, sym_name = "__sm_node1199___model.layer-129.moving_variance", tf_saved_model.exported_names = [], type = tensor<960xf32>, value = dense<5.000000e-01> : tensor<960xf32>} : () -> () loc(#loc0)
  "tf_saved_model.global_tensor"() {is_mutable, sym_name = "__sm_node1212___model.layer-131.kernel", tf_saved_model.exported_names = [], type = tensor<1x1x960x160xf32>, value = dense<5.000000e-01> : tensor<1x1x960x160xf32>} : () -> () loc(#loc0)
  "tf_saved_model.global_tensor"() {is_mutable, sym_name = "__sm_node1220___model.layer-132.gamma", tf_saved_model.exported_names = [], type = tensor<160xf32>, value = dense<5.000000e-01> : tensor<160xf32>} : () -> () loc(#loc0)
  "tf_saved_model.global_tensor"() {is_mutable, sym_name = "__sm_node1221___model.layer-132.beta", tf_saved_model.exported_names = [], type = tensor<160xf32>, value = dense<5.000000e-01> : tensor<160xf32>} : () -> () loc(#loc0)
  "tf_saved_model.global_tensor"() {is_mutable, sym_name = "__sm_node1222___model.layer-132.moving_mean", tf_saved_model.exported_names = [], type = tensor<160xf32>, value = dense<5.000000e-01> : tensor<160xf32>} : () -> () loc(#loc0)
  "tf_saved_model.global_tensor"() {is_mutable, sym_name = "__sm_node1223___model.layer-132.moving_variance", tf_saved_model.exported_names = [], type = tensor<160xf32>, value = dense<5.000000e-01> : tensor<160xf32>} : () -> () loc(#loc0)
  "tf_saved_model.global_tensor"() {is_mutable, sym_name = "__sm_node1236___model.layer-134.kernel", tf_saved_model.exported_names = [], type = tensor<1x1x160x960xf32>, value = dense<5.000000e-01> : tensor<1x1x160x960xf32>} : () -> () loc(#loc0)
  "tf_saved_model.global_tensor"() {is_mutable, sym_name = "__sm_node1244___model.layer-135.gamma", tf_saved_model.exported_names = [], type = tensor<960xf32>, value = dense<5.000000e-01> : tensor<960xf32>} : () -> () loc(#loc0)
  "tf_saved_model.global_tensor"() {is_mutable, sym_name = "__sm_node1245___model.layer-135.beta", tf_saved_model.exported_names = [], type = tensor<960xf32>, value = dense<5.000000e-01> : tensor<960xf32>} : () -> () loc(#loc0)
  "tf_saved_model.global_tensor"() {is_mutable, sym_name = "__sm_node1246___model.layer-135.moving_mean", tf_saved_model.exported_names = [], type = tensor<960xf32>, value = dense<5.000000e-01> : tensor<960xf32>} : () -> () loc(#loc0)
  "tf_saved_model.global_tensor"() {is_mutable, sym_name = "__sm_node1247___model.layer-135.moving_variance", tf_saved_model.exported_names = [], type = tensor<960xf32>, value = dense<5.000000e-01> : tensor<960xf32>} : () -> () loc(#loc0)
  "tf_saved_model.global_tensor"() {is_mutable, sym_name = "__sm_node1260___model.layer-137.depthwise_kernel", tf_saved_model.exported_names = [], type = tensor<3x3x960x1xf32>, value = dense<5.000000e-01> : tensor<3x3x960x1xf32>} : () -> () loc(#loc0)
  "tf_saved_model.global_tensor"() {is_mutable, sym_name = "__sm_node1268___model.layer-138.gamma", tf_saved_model.exported_names = [], type = tensor<960xf32>, value = dense<5.000000e-01> : tensor<960xf32>} : () -> () loc(#loc0)
  "tf_saved_model.global_tensor"() {is_mutable, sym_name = "__sm_node1269___model.layer-138.beta", tf_saved_model.exported_names = [], type = tensor<960xf32>, value = dense<5.000000e-01> : tensor<960xf32>} : () -> () loc(#loc0)
  "tf_saved_model.global_tensor"() {is_mutable, sym_name = "__sm_node1270___model.layer-138.moving_mean", tf_saved_model.exported_names = [], type = tensor<960xf32>, value = dense<5.000000e-01> : tensor<960xf32>} : () -> () loc(#loc0)
  "tf_saved_model.global_tensor"() {is_mutable, sym_name = "__sm_node1271___model.layer-138.moving_variance", tf_saved_model.exported_names = [], type = tensor<960xf32>, value = dense<5.000000e-01> : tensor<960xf32>} : () -> () loc(#loc0)
  "tf_saved_model.global_tensor"() {is_mutable, sym_name = "__sm_node1284___model.layer-140.kernel", tf_saved_model.exported_names = [], type = tensor<1x1x960x160xf32>, value = dense<5.000000e-01> : tensor<1x1x960x160xf32>} : () -> () loc(#loc0)
  "tf_saved_model.global_tensor"() {is_mutable, sym_name = "__sm_node1292___model.layer-141.gamma", tf_saved_model.exported_names = [], type = tensor<160xf32>, value = dense<5.000000e-01> : tensor<160xf32>} : () -> () loc(#loc0)
  "tf_saved_model.global_tensor"() {is_mutable, sym_name = "__sm_node1293___model.layer-141.beta", tf_saved_model.exported_names = [], type = tensor<160xf32>, value = dense<5.000000e-01> : tensor<160xf32>} : () -> () loc(#loc0)
  "tf_saved_model.global_tensor"() {is_mutable, sym_name = "__sm_node1294___model.layer-141.moving_mean", tf_saved_model.exported_names = [], type = tensor<160xf32>, value = dense<5.000000e-01> : tensor<160xf32>} : () -> () loc(#loc0)
  "tf_saved_model.global_tensor"() {is_mutable, sym_name = "__sm_node1295___model.layer-141.moving_variance", tf_saved_model.exported_names = [], type = tensor<160xf32>, value = dense<5.000000e-01> : tensor<160xf32>} : () -> () loc(#loc0)
  "tf_saved_model.global_tensor"() {is_mutable, sym_name = "__sm_node1308___model.layer-143.kernel", tf_saved_model.exported_names = [], type = tensor<1x1x160x960xf32>, value = dense<5.000000e-01> : tensor<1x1x160x960xf32>} : () -> () loc(#loc0)
  "tf_saved_model.global_tensor"() {is_mutable, sym_name = "__sm_node1316___model.layer-144.gamma", tf_saved_model.exported_names = [], type = tensor<960xf32>, value = dense<5.000000e-01> : tensor<960xf32>} : () -> () loc(#loc0)
  "tf_saved_model.global_tensor"() {is_mutable, sym_name = "__sm_node1317___model.layer-144.beta", tf_saved_model.exported_names = [], type = tensor<960xf32>, value = dense<5.000000e-01> : tensor<960xf32>} : () -> () loc(#loc0)
  "tf_saved_model.global_tensor"() {is_mutable, sym_name = "__sm_node1318___model.layer-144.moving_mean", tf_saved_model.exported_names = [], type = tensor<960xf32>, value = dense<5.000000e-01> : tensor<960xf32>} : () -> () loc(#loc0)
  "tf_saved_model.global_tensor"() {is_mutable, sym_name = "__sm_node1319___model.layer-144.moving_variance", tf_saved_model.exported_names = [], type = tensor<960xf32>, value = dense<5.000000e-01> : tensor<960xf32>} : () -> () loc(#loc0)
  "tf_saved_model.global_tensor"() {is_mutable, sym_name = "__sm_node1332___model.layer-146.depthwise_kernel", tf_saved_model.exported_names = [], type = tensor<3x3x960x1xf32>, value = dense<5.000000e-01> : tensor<3x3x960x1xf32>} : () -> () loc(#loc0)
  "tf_saved_model.global_tensor"() {is_mutable, sym_name = "__sm_node1340___model.layer-147.gamma", tf_saved_model.exported_names = [], type = tensor<960xf32>, value = dense<5.000000e-01> : tensor<960xf32>} : () -> () loc(#loc0)
  "tf_saved_model.global_tensor"() {is_mutable, sym_name = "__sm_node1341___model.layer-147.beta", tf_saved_model.exported_names = [], type = tensor<960xf32>, value = dense<5.000000e-01> : tensor<960xf32>} : () -> () loc(#loc0)
  "tf_saved_model.global_tensor"() {is_mutable, sym_name = "__sm_node1342___model.layer-147.moving_mean", tf_saved_model.exported_names = [], type = tensor<960xf32>, value = dense<5.000000e-01> : tensor<960xf32>} : () -> () loc(#loc0)
  "tf_saved_model.global_tensor"() {is_mutable, sym_name = "__sm_node1343___model.layer-147.moving_variance", tf_saved_model.exported_names = [], type = tensor<960xf32>, value = dense<5.000000e-01> : tensor<960xf32>} : () -> () loc(#loc0)
  "tf_saved_model.global_tensor"() {is_mutable, sym_name = "__sm_node1356___model.layer-149.kernel", tf_saved_model.exported_names = [], type = tensor<1x1x960x320xf32>, value = dense<5.000000e-01> : tensor<1x1x960x320xf32>} : () -> () loc(#loc0)
  "tf_saved_model.global_tensor"() {is_mutable, sym_name = "__sm_node1364___model.layer-150.gamma", tf_saved_model.exported_names = [], type = tensor<320xf32>, value = dense<5.000000e-01> : tensor<320xf32>} : () -> () loc(#loc0)
  "tf_saved_model.global_tensor"() {is_mutable, sym_name = "__sm_node1365___model.layer-150.beta", tf_saved_model.exported_names = [], type = tensor<320xf32>, value = dense<5.000000e-01> : tensor<320xf32>} : () -> () loc(#loc0)
  "tf_saved_model.global_tensor"() {is_mutable, sym_name = "__sm_node1366___model.layer-150.moving_mean", tf_saved_model.exported_names = [], type = tensor<320xf32>, value = dense<5.000000e-01> : tensor<320xf32>} : () -> () loc(#loc0)
  "tf_saved_model.global_tensor"() {is_mutable, sym_name = "__sm_node1367___model.layer-150.moving_variance", tf_saved_model.exported_names = [], type = tensor<320xf32>, value = dense<5.000000e-01> : tensor<320xf32>} : () -> () loc(#loc0)
  "tf_saved_model.global_tensor"() {is_mutable, sym_name = "__sm_node1374___model.layer-151.kernel", tf_saved_model.exported_names = [], type = tensor<1x1x320x1280xf32>, value = dense<5.000000e-01> : tensor<1x1x320x1280xf32>} : () -> () loc(#loc0)
  "tf_saved_model.global_tensor"() {is_mutable, sym_name = "__sm_node1382___model.layer-152.gamma", tf_saved_model.exported_names = [], type = tensor<1280xf32>, value = dense<5.000000e-01> : tensor<1280xf32>} : () -> () loc(#loc0)
  "tf_saved_model.global_tensor"() {is_mutable, sym_name = "__sm_node1383___model.layer-152.beta", tf_saved_model.exported_names = [], type = tensor<1280xf32>, value = dense<5.000000e-01> : tensor<1280xf32>} : () -> () loc(#loc0)
  "tf_saved_model.global_tensor"() {is_mutable, sym_name = "__sm_node1384___model.layer-152.moving_mean", tf_saved_model.exported_names = [], type = tensor<1280xf32>, value = dense<5.000000e-01> : tensor<1280xf32>} : () -> () loc(#loc0)
  "tf_saved_model.global_tensor"() {is_mutable, sym_name = "__sm_node1385___model.layer-152.moving_variance", tf_saved_model.exported_names = [], type = tensor<1280xf32>, value = dense<5.000000e-01> : tensor<1280xf32>} : () -> () loc(#loc0)
  "tf_saved_model.global_tensor"() {is_mutable, sym_name = "__sm_node1404___model.layer-155.kernel", tf_saved_model.exported_names = [], type = tensor<1280x1000xf32>, value = dense<5.000000e-01> : tensor<1280x1000xf32>} : () -> () loc(#loc0)
  "tf_saved_model.global_tensor"() {is_mutable, sym_name = "__sm_node1405___model.layer-155.bias", tf_saved_model.exported_names = [], type = tensor<1000xf32>, value = dense<5.000000e-01> : tensor<1000xf32>} : () -> () loc(#loc0)
  func @__inference_predict_40790(%arg0: tensor<1x224x224x3xf32> {tf._user_specified_name = "args_0", tf_saved_model.index_path = [0]} loc(unknown), %arg1: tensor<!tf_type.resource<tensor<3x3x3x32xf32>>> {tf_saved_model.bound_input = @"__sm_node168___model.layer-1.kernel"} loc(unknown), %arg2: tensor<!tf_type.resource<tensor<32xf32>>> {tf_saved_model.bound_input = @"__sm_node176___model.layer-2.gamma"} loc(unknown), %arg3: tensor<!tf_type.resource<tensor<32xf32>>> {tf_saved_model.bound_input = @"__sm_node177___model.layer-2.beta"} loc(unknown), %arg4: tensor<!tf_type.resource<tensor<32xf32>>> {tf_saved_model.bound_input = @"__sm_node178___model.layer-2.moving_mean"} loc(unknown), %arg5: tensor<!tf_type.resource<tensor<32xf32>>> {tf_saved_model.bound_input = @"__sm_node179___model.layer-2.moving_variance"} loc(unknown), %arg6: tensor<!tf_type.resource<tensor<3x3x32x1xf32>>> {tf_saved_model.bound_input = @"__sm_node192___model.layer-4.depthwise_kernel"} loc(unknown), %arg7: tensor<!tf_type.resource<tensor<32xf32>>> {tf_saved_model.bound_input = @"__sm_node200___model.layer-5.gamma"} loc(unknown), %arg8: tensor<!tf_type.resource<tensor<32xf32>>> {tf_saved_model.bound_input = @"__sm_node201___model.layer-5.beta"} loc(unknown), %arg9: tensor<!tf_type.resource<tensor<32xf32>>> {tf_saved_model.bound_input = @"__sm_node202___model.layer-5.moving_mean"} loc(unknown), %arg10: tensor<!tf_type.resource<tensor<32xf32>>> {tf_saved_model.bound_input = @"__sm_node203___model.layer-5.moving_variance"} loc(unknown), %arg11: tensor<!tf_type.resource<tensor<1x1x32x16xf32>>> {tf_saved_model.bound_input = @"__sm_node216___model.layer-7.kernel"} loc(unknown), %arg12: tensor<!tf_type.resource<tensor<16xf32>>> {tf_saved_model.bound_input = @"__sm_node224___model.layer-8.gamma"} loc(unknown), %arg13: tensor<!tf_type.resource<tensor<16xf32>>> {tf_saved_model.bound_input = @"__sm_node225___model.layer-8.beta"} loc(unknown), %arg14: tensor<!tf_type.resource<tensor<16xf32>>> {tf_saved_model.bound_input = @"__sm_node226___model.layer-8.moving_mean"} loc(unknown), %arg15: tensor<!tf_type.resource<tensor<16xf32>>> {tf_saved_model.bound_input = @"__sm_node227___model.layer-8.moving_variance"} loc(unknown), %arg16: tensor<!tf_type.resource<tensor<1x1x16x96xf32>>> {tf_saved_model.bound_input = @"__sm_node234___model.layer-9.kernel"} loc(unknown), %arg17: tensor<!tf_type.resource<tensor<96xf32>>> {tf_saved_model.bound_input = @"__sm_node242___model.layer-10.gamma"} loc(unknown), %arg18: tensor<!tf_type.resource<tensor<96xf32>>> {tf_saved_model.bound_input = @"__sm_node243___model.layer-10.beta"} loc(unknown), %arg19: tensor<!tf_type.resource<tensor<96xf32>>> {tf_saved_model.bound_input = @"__sm_node244___model.layer-10.moving_mean"} loc(unknown), %arg20: tensor<!tf_type.resource<tensor<96xf32>>> {tf_saved_model.bound_input = @"__sm_node245___model.layer-10.moving_variance"} loc(unknown), %arg21: tensor<!tf_type.resource<tensor<3x3x96x1xf32>>> {tf_saved_model.bound_input = @"__sm_node264___model.layer-13.depthwise_kernel"} loc(unknown), %arg22: tensor<!tf_type.resource<tensor<96xf32>>> {tf_saved_model.bound_input = @"__sm_node272___model.layer-14.gamma"} loc(unknown), %arg23: tensor<!tf_type.resource<tensor<96xf32>>> {tf_saved_model.bound_input = @"__sm_node273___model.layer-14.beta"} loc(unknown), %arg24: tensor<!tf_type.resource<tensor<96xf32>>> {tf_saved_model.bound_input = @"__sm_node274___model.layer-14.moving_mean"} loc(unknown), %arg25: tensor<!tf_type.resource<tensor<96xf32>>> {tf_saved_model.bound_input = @"__sm_node275___model.layer-14.moving_variance"} loc(unknown), %arg26: tensor<!tf_type.resource<tensor<1x1x96x24xf32>>> {tf_saved_model.bound_input = @"__sm_node288___model.layer-16.kernel"} loc(unknown), %arg27: tensor<!tf_type.resource<tensor<24xf32>>> {tf_saved_model.bound_input = @"__sm_node296___model.layer-17.gamma"} loc(unknown), %arg28: tensor<!tf_type.resource<tensor<24xf32>>> {tf_saved_model.bound_input = @"__sm_node297___model.layer-17.beta"} loc(unknown), %arg29: tensor<!tf_type.resource<tensor<24xf32>>> {tf_saved_model.bound_input = @"__sm_node298___model.layer-17.moving_mean"} loc(unknown), %arg30: tensor<!tf_type.resource<tensor<24xf32>>> {tf_saved_model.bound_input = @"__sm_node299___model.layer-17.moving_variance"} loc(unknown), %arg31: tensor<!tf_type.resource<tensor<1x1x24x144xf32>>> {tf_saved_model.bound_input = @"__sm_node306___model.layer-18.kernel"} loc(unknown), %arg32: tensor<!tf_type.resource<tensor<144xf32>>> {tf_saved_model.bound_input = @"__sm_node314___model.layer-19.gamma"} loc(unknown), %arg33: tensor<!tf_type.resource<tensor<144xf32>>> {tf_saved_model.bound_input = @"__sm_node315___model.layer-19.beta"} loc(unknown), %arg34: tensor<!tf_type.resource<tensor<144xf32>>> {tf_saved_model.bound_input = @"__sm_node316___model.layer-19.moving_mean"} loc(unknown), %arg35: tensor<!tf_type.resource<tensor<144xf32>>> {tf_saved_model.bound_input = @"__sm_node317___model.layer-19.moving_variance"} loc(unknown), %arg36: tensor<!tf_type.resource<tensor<3x3x144x1xf32>>> {tf_saved_model.bound_input = @"__sm_node330___model.layer-21.depthwise_kernel"} loc(unknown), %arg37: tensor<!tf_type.resource<tensor<144xf32>>> {tf_saved_model.bound_input = @"__sm_node338___model.layer-22.gamma"} loc(unknown), %arg38: tensor<!tf_type.resource<tensor<144xf32>>> {tf_saved_model.bound_input = @"__sm_node339___model.layer-22.beta"} loc(unknown), %arg39: tensor<!tf_type.resource<tensor<144xf32>>> {tf_saved_model.bound_input = @"__sm_node340___model.layer-22.moving_mean"} loc(unknown), %arg40: tensor<!tf_type.resource<tensor<144xf32>>> {tf_saved_model.bound_input = @"__sm_node341___model.layer-22.moving_variance"} loc(unknown), %arg41: tensor<!tf_type.resource<tensor<1x1x144x24xf32>>> {tf_saved_model.bound_input = @"__sm_node354___model.layer-24.kernel"} loc(unknown), %arg42: tensor<!tf_type.resource<tensor<24xf32>>> {tf_saved_model.bound_input = @"__sm_node362___model.layer-25.gamma"} loc(unknown), %arg43: tensor<!tf_type.resource<tensor<24xf32>>> {tf_saved_model.bound_input = @"__sm_node363___model.layer-25.beta"} loc(unknown), %arg44: tensor<!tf_type.resource<tensor<24xf32>>> {tf_saved_model.bound_input = @"__sm_node364___model.layer-25.moving_mean"} loc(unknown), %arg45: tensor<!tf_type.resource<tensor<24xf32>>> {tf_saved_model.bound_input = @"__sm_node365___model.layer-25.moving_variance"} loc(unknown), %arg46: tensor<!tf_type.resource<tensor<1x1x24x144xf32>>> {tf_saved_model.bound_input = @"__sm_node378___model.layer-27.kernel"} loc(unknown), %arg47: tensor<!tf_type.resource<tensor<144xf32>>> {tf_saved_model.bound_input = @"__sm_node386___model.layer-28.gamma"} loc(unknown), %arg48: tensor<!tf_type.resource<tensor<144xf32>>> {tf_saved_model.bound_input = @"__sm_node387___model.layer-28.beta"} loc(unknown), %arg49: tensor<!tf_type.resource<tensor<144xf32>>> {tf_saved_model.bound_input = @"__sm_node388___model.layer-28.moving_mean"} loc(unknown), %arg50: tensor<!tf_type.resource<tensor<144xf32>>> {tf_saved_model.bound_input = @"__sm_node389___model.layer-28.moving_variance"} loc(unknown), %arg51: tensor<!tf_type.resource<tensor<3x3x144x1xf32>>> {tf_saved_model.bound_input = @"__sm_node408___model.layer-31.depthwise_kernel"} loc(unknown), %arg52: tensor<!tf_type.resource<tensor<144xf32>>> {tf_saved_model.bound_input = @"__sm_node416___model.layer-32.gamma"} loc(unknown), %arg53: tensor<!tf_type.resource<tensor<144xf32>>> {tf_saved_model.bound_input = @"__sm_node417___model.layer-32.beta"} loc(unknown), %arg54: tensor<!tf_type.resource<tensor<144xf32>>> {tf_saved_model.bound_input = @"__sm_node418___model.layer-32.moving_mean"} loc(unknown), %arg55: tensor<!tf_type.resource<tensor<144xf32>>> {tf_saved_model.bound_input = @"__sm_node419___model.layer-32.moving_variance"} loc(unknown), %arg56: tensor<!tf_type.resource<tensor<1x1x144x32xf32>>> {tf_saved_model.bound_input = @"__sm_node432___model.layer-34.kernel"} loc(unknown), %arg57: tensor<!tf_type.resource<tensor<32xf32>>> {tf_saved_model.bound_input = @"__sm_node440___model.layer-35.gamma"} loc(unknown), %arg58: tensor<!tf_type.resource<tensor<32xf32>>> {tf_saved_model.bound_input = @"__sm_node441___model.layer-35.beta"} loc(unknown), %arg59: tensor<!tf_type.resource<tensor<32xf32>>> {tf_saved_model.bound_input = @"__sm_node442___model.layer-35.moving_mean"} loc(unknown), %arg60: tensor<!tf_type.resource<tensor<32xf32>>> {tf_saved_model.bound_input = @"__sm_node443___model.layer-35.moving_variance"} loc(unknown), %arg61: tensor<!tf_type.resource<tensor<1x1x32x192xf32>>> {tf_saved_model.bound_input = @"__sm_node450___model.layer-36.kernel"} loc(unknown), %arg62: tensor<!tf_type.resource<tensor<192xf32>>> {tf_saved_model.bound_input = @"__sm_node458___model.layer-37.gamma"} loc(unknown), %arg63: tensor<!tf_type.resource<tensor<192xf32>>> {tf_saved_model.bound_input = @"__sm_node459___model.layer-37.beta"} loc(unknown), %arg64: tensor<!tf_type.resource<tensor<192xf32>>> {tf_saved_model.bound_input = @"__sm_node460___model.layer-37.moving_mean"} loc(unknown), %arg65: tensor<!tf_type.resource<tensor<192xf32>>> {tf_saved_model.bound_input = @"__sm_node461___model.layer-37.moving_variance"} loc(unknown), %arg66: tensor<!tf_type.resource<tensor<3x3x192x1xf32>>> {tf_saved_model.bound_input = @"__sm_node474___model.layer-39.depthwise_kernel"} loc(unknown), %arg67: tensor<!tf_type.resource<tensor<192xf32>>> {tf_saved_model.bound_input = @"__sm_node482___model.layer-40.gamma"} loc(unknown), %arg68: tensor<!tf_type.resource<tensor<192xf32>>> {tf_saved_model.bound_input = @"__sm_node483___model.layer-40.beta"} loc(unknown), %arg69: tensor<!tf_type.resource<tensor<192xf32>>> {tf_saved_model.bound_input = @"__sm_node484___model.layer-40.moving_mean"} loc(unknown), %arg70: tensor<!tf_type.resource<tensor<192xf32>>> {tf_saved_model.bound_input = @"__sm_node485___model.layer-40.moving_variance"} loc(unknown), %arg71: tensor<!tf_type.resource<tensor<1x1x192x32xf32>>> {tf_saved_model.bound_input = @"__sm_node498___model.layer-42.kernel"} loc(unknown), %arg72: tensor<!tf_type.resource<tensor<32xf32>>> {tf_saved_model.bound_input = @"__sm_node506___model.layer-43.gamma"} loc(unknown), %arg73: tensor<!tf_type.resource<tensor<32xf32>>> {tf_saved_model.bound_input = @"__sm_node507___model.layer-43.beta"} loc(unknown), %arg74: tensor<!tf_type.resource<tensor<32xf32>>> {tf_saved_model.bound_input = @"__sm_node508___model.layer-43.moving_mean"} loc(unknown), %arg75: tensor<!tf_type.resource<tensor<32xf32>>> {tf_saved_model.bound_input = @"__sm_node509___model.layer-43.moving_variance"} loc(unknown), %arg76: tensor<!tf_type.resource<tensor<1x1x32x192xf32>>> {tf_saved_model.bound_input = @"__sm_node522___model.layer-45.kernel"} loc(unknown), %arg77: tensor<!tf_type.resource<tensor<192xf32>>> {tf_saved_model.bound_input = @"__sm_node530___model.layer-46.gamma"} loc(unknown), %arg78: tensor<!tf_type.resource<tensor<192xf32>>> {tf_saved_model.bound_input = @"__sm_node531___model.layer-46.beta"} loc(unknown), %arg79: tensor<!tf_type.resource<tensor<192xf32>>> {tf_saved_model.bound_input = @"__sm_node532___model.layer-46.moving_mean"} loc(unknown), %arg80: tensor<!tf_type.resource<tensor<192xf32>>> {tf_saved_model.bound_input = @"__sm_node533___model.layer-46.moving_variance"} loc(unknown), %arg81: tensor<!tf_type.resource<tensor<3x3x192x1xf32>>> {tf_saved_model.bound_input = @"__sm_node546___model.layer-48.depthwise_kernel"} loc(unknown), %arg82: tensor<!tf_type.resource<tensor<192xf32>>> {tf_saved_model.bound_input = @"__sm_node554___model.layer-49.gamma"} loc(unknown), %arg83: tensor<!tf_type.resource<tensor<192xf32>>> {tf_saved_model.bound_input = @"__sm_node555___model.layer-49.beta"} loc(unknown), %arg84: tensor<!tf_type.resource<tensor<192xf32>>> {tf_saved_model.bound_input = @"__sm_node556___model.layer-49.moving_mean"} loc(unknown), %arg85: tensor<!tf_type.resource<tensor<192xf32>>> {tf_saved_model.bound_input = @"__sm_node557___model.layer-49.moving_variance"} loc(unknown), %arg86: tensor<!tf_type.resource<tensor<1x1x192x32xf32>>> {tf_saved_model.bound_input = @"__sm_node570___model.layer-51.kernel"} loc(unknown), %arg87: tensor<!tf_type.resource<tensor<32xf32>>> {tf_saved_model.bound_input = @"__sm_node578___model.layer-52.gamma"} loc(unknown), %arg88: tensor<!tf_type.resource<tensor<32xf32>>> {tf_saved_model.bound_input = @"__sm_node579___model.layer-52.beta"} loc(unknown), %arg89: tensor<!tf_type.resource<tensor<32xf32>>> {tf_saved_model.bound_input = @"__sm_node580___model.layer-52.moving_mean"} loc(unknown), %arg90: tensor<!tf_type.resource<tensor<32xf32>>> {tf_saved_model.bound_input = @"__sm_node581___model.layer-52.moving_variance"} loc(unknown), %arg91: tensor<!tf_type.resource<tensor<1x1x32x192xf32>>> {tf_saved_model.bound_input = @"__sm_node594___model.layer-54.kernel"} loc(unknown), %arg92: tensor<!tf_type.resource<tensor<192xf32>>> {tf_saved_model.bound_input = @"__sm_node602___model.layer-55.gamma"} loc(unknown), %arg93: tensor<!tf_type.resource<tensor<192xf32>>> {tf_saved_model.bound_input = @"__sm_node603___model.layer-55.beta"} loc(unknown), %arg94: tensor<!tf_type.resource<tensor<192xf32>>> {tf_saved_model.bound_input = @"__sm_node604___model.layer-55.moving_mean"} loc(unknown), %arg95: tensor<!tf_type.resource<tensor<192xf32>>> {tf_saved_model.bound_input = @"__sm_node605___model.layer-55.moving_variance"} loc(unknown), %arg96: tensor<!tf_type.resource<tensor<3x3x192x1xf32>>> {tf_saved_model.bound_input = @"__sm_node624___model.layer-58.depthwise_kernel"} loc(unknown), %arg97: tensor<!tf_type.resource<tensor<192xf32>>> {tf_saved_model.bound_input = @"__sm_node632___model.layer-59.gamma"} loc(unknown), %arg98: tensor<!tf_type.resource<tensor<192xf32>>> {tf_saved_model.bound_input = @"__sm_node633___model.layer-59.beta"} loc(unknown), %arg99: tensor<!tf_type.resource<tensor<192xf32>>> {tf_saved_model.bound_input = @"__sm_node634___model.layer-59.moving_mean"} loc(unknown), %arg100: tensor<!tf_type.resource<tensor<192xf32>>> {tf_saved_model.bound_input = @"__sm_node635___model.layer-59.moving_variance"} loc(unknown), %arg101: tensor<!tf_type.resource<tensor<1x1x192x64xf32>>> {tf_saved_model.bound_input = @"__sm_node648___model.layer-61.kernel"} loc(unknown), %arg102: tensor<!tf_type.resource<tensor<64xf32>>> {tf_saved_model.bound_input = @"__sm_node656___model.layer-62.gamma"} loc(unknown), %arg103: tensor<!tf_type.resource<tensor<64xf32>>> {tf_saved_model.bound_input = @"__sm_node657___model.layer-62.beta"} loc(unknown), %arg104: tensor<!tf_type.resource<tensor<64xf32>>> {tf_saved_model.bound_input = @"__sm_node658___model.layer-62.moving_mean"} loc(unknown), %arg105: tensor<!tf_type.resource<tensor<64xf32>>> {tf_saved_model.bound_input = @"__sm_node659___model.layer-62.moving_variance"} loc(unknown), %arg106: tensor<!tf_type.resource<tensor<1x1x64x384xf32>>> {tf_saved_model.bound_input = @"__sm_node666___model.layer-63.kernel"} loc(unknown), %arg107: tensor<!tf_type.resource<tensor<384xf32>>> {tf_saved_model.bound_input = @"__sm_node674___model.layer-64.gamma"} loc(unknown), %arg108: tensor<!tf_type.resource<tensor<384xf32>>> {tf_saved_model.bound_input = @"__sm_node675___model.layer-64.beta"} loc(unknown), %arg109: tensor<!tf_type.resource<tensor<384xf32>>> {tf_saved_model.bound_input = @"__sm_node676___model.layer-64.moving_mean"} loc(unknown), %arg110: tensor<!tf_type.resource<tensor<384xf32>>> {tf_saved_model.bound_input = @"__sm_node677___model.layer-64.moving_variance"} loc(unknown), %arg111: tensor<!tf_type.resource<tensor<3x3x384x1xf32>>> {tf_saved_model.bound_input = @"__sm_node690___model.layer-66.depthwise_kernel"} loc(unknown), %arg112: tensor<!tf_type.resource<tensor<384xf32>>> {tf_saved_model.bound_input = @"__sm_node698___model.layer-67.gamma"} loc(unknown), %arg113: tensor<!tf_type.resource<tensor<384xf32>>> {tf_saved_model.bound_input = @"__sm_node699___model.layer-67.beta"} loc(unknown), %arg114: tensor<!tf_type.resource<tensor<384xf32>>> {tf_saved_model.bound_input = @"__sm_node700___model.layer-67.moving_mean"} loc(unknown), %arg115: tensor<!tf_type.resource<tensor<384xf32>>> {tf_saved_model.bound_input = @"__sm_node701___model.layer-67.moving_variance"} loc(unknown), %arg116: tensor<!tf_type.resource<tensor<1x1x384x64xf32>>> {tf_saved_model.bound_input = @"__sm_node714___model.layer-69.kernel"} loc(unknown), %arg117: tensor<!tf_type.resource<tensor<64xf32>>> {tf_saved_model.bound_input = @"__sm_node722___model.layer-70.gamma"} loc(unknown), %arg118: tensor<!tf_type.resource<tensor<64xf32>>> {tf_saved_model.bound_input = @"__sm_node723___model.layer-70.beta"} loc(unknown), %arg119: tensor<!tf_type.resource<tensor<64xf32>>> {tf_saved_model.bound_input = @"__sm_node724___model.layer-70.moving_mean"} loc(unknown), %arg120: tensor<!tf_type.resource<tensor<64xf32>>> {tf_saved_model.bound_input = @"__sm_node725___model.layer-70.moving_variance"} loc(unknown), %arg121: tensor<!tf_type.resource<tensor<1x1x64x384xf32>>> {tf_saved_model.bound_input = @"__sm_node738___model.layer-72.kernel"} loc(unknown), %arg122: tensor<!tf_type.resource<tensor<384xf32>>> {tf_saved_model.bound_input = @"__sm_node746___model.layer-73.gamma"} loc(unknown), %arg123: tensor<!tf_type.resource<tensor<384xf32>>> {tf_saved_model.bound_input = @"__sm_node747___model.layer-73.beta"} loc(unknown), %arg124: tensor<!tf_type.resource<tensor<384xf32>>> {tf_saved_model.bound_input = @"__sm_node748___model.layer-73.moving_mean"} loc(unknown), %arg125: tensor<!tf_type.resource<tensor<384xf32>>> {tf_saved_model.bound_input = @"__sm_node749___model.layer-73.moving_variance"} loc(unknown), %arg126: tensor<!tf_type.resource<tensor<3x3x384x1xf32>>> {tf_saved_model.bound_input = @"__sm_node762___model.layer-75.depthwise_kernel"} loc(unknown), %arg127: tensor<!tf_type.resource<tensor<384xf32>>> {tf_saved_model.bound_input = @"__sm_node770___model.layer-76.gamma"} loc(unknown), %arg128: tensor<!tf_type.resource<tensor<384xf32>>> {tf_saved_model.bound_input = @"__sm_node771___model.layer-76.beta"} loc(unknown), %arg129: tensor<!tf_type.resource<tensor<384xf32>>> {tf_saved_model.bound_input = @"__sm_node772___model.layer-76.moving_mean"} loc(unknown), %arg130: tensor<!tf_type.resource<tensor<384xf32>>> {tf_saved_model.bound_input = @"__sm_node773___model.layer-76.moving_variance"} loc(unknown), %arg131: tensor<!tf_type.resource<tensor<1x1x384x64xf32>>> {tf_saved_model.bound_input = @"__sm_node786___model.layer-78.kernel"} loc(unknown), %arg132: tensor<!tf_type.resource<tensor<64xf32>>> {tf_saved_model.bound_input = @"__sm_node794___model.layer-79.gamma"} loc(unknown), %arg133: tensor<!tf_type.resource<tensor<64xf32>>> {tf_saved_model.bound_input = @"__sm_node795___model.layer-79.beta"} loc(unknown), %arg134: tensor<!tf_type.resource<tensor<64xf32>>> {tf_saved_model.bound_input = @"__sm_node796___model.layer-79.moving_mean"} loc(unknown), %arg135: tensor<!tf_type.resource<tensor<64xf32>>> {tf_saved_model.bound_input = @"__sm_node797___model.layer-79.moving_variance"} loc(unknown), %arg136: tensor<!tf_type.resource<tensor<1x1x64x384xf32>>> {tf_saved_model.bound_input = @"__sm_node810___model.layer-81.kernel"} loc(unknown), %arg137: tensor<!tf_type.resource<tensor<384xf32>>> {tf_saved_model.bound_input = @"__sm_node818___model.layer-82.gamma"} loc(unknown), %arg138: tensor<!tf_type.resource<tensor<384xf32>>> {tf_saved_model.bound_input = @"__sm_node819___model.layer-82.beta"} loc(unknown), %arg139: tensor<!tf_type.resource<tensor<384xf32>>> {tf_saved_model.bound_input = @"__sm_node820___model.layer-82.moving_mean"} loc(unknown), %arg140: tensor<!tf_type.resource<tensor<384xf32>>> {tf_saved_model.bound_input = @"__sm_node821___model.layer-82.moving_variance"} loc(unknown), %arg141: tensor<!tf_type.resource<tensor<3x3x384x1xf32>>> {tf_saved_model.bound_input = @"__sm_node834___model.layer-84.depthwise_kernel"} loc(unknown), %arg142: tensor<!tf_type.resource<tensor<384xf32>>> {tf_saved_model.bound_input = @"__sm_node842___model.layer-85.gamma"} loc(unknown), %arg143: tensor<!tf_type.resource<tensor<384xf32>>> {tf_saved_model.bound_input = @"__sm_node843___model.layer-85.beta"} loc(unknown), %arg144: tensor<!tf_type.resource<tensor<384xf32>>> {tf_saved_model.bound_input = @"__sm_node844___model.layer-85.moving_mean"} loc(unknown), %arg145: tensor<!tf_type.resource<tensor<384xf32>>> {tf_saved_model.bound_input = @"__sm_node845___model.layer-85.moving_variance"} loc(unknown), %arg146: tensor<!tf_type.resource<tensor<1x1x384x64xf32>>> {tf_saved_model.bound_input = @"__sm_node858___model.layer-87.kernel"} loc(unknown), %arg147: tensor<!tf_type.resource<tensor<64xf32>>> {tf_saved_model.bound_input = @"__sm_node866___model.layer-88.gamma"} loc(unknown), %arg148: tensor<!tf_type.resource<tensor<64xf32>>> {tf_saved_model.bound_input = @"__sm_node867___model.layer-88.beta"} loc(unknown), %arg149: tensor<!tf_type.resource<tensor<64xf32>>> {tf_saved_model.bound_input = @"__sm_node868___model.layer-88.moving_mean"} loc(unknown), %arg150: tensor<!tf_type.resource<tensor<64xf32>>> {tf_saved_model.bound_input = @"__sm_node869___model.layer-88.moving_variance"} loc(unknown), %arg151: tensor<!tf_type.resource<tensor<1x1x64x384xf32>>> {tf_saved_model.bound_input = @"__sm_node882___model.layer-90.kernel"} loc(unknown), %arg152: tensor<!tf_type.resource<tensor<384xf32>>> {tf_saved_model.bound_input = @"__sm_node890___model.layer-91.gamma"} loc(unknown), %arg153: tensor<!tf_type.resource<tensor<384xf32>>> {tf_saved_model.bound_input = @"__sm_node891___model.layer-91.beta"} loc(unknown), %arg154: tensor<!tf_type.resource<tensor<384xf32>>> {tf_saved_model.bound_input = @"__sm_node892___model.layer-91.moving_mean"} loc(unknown), %arg155: tensor<!tf_type.resource<tensor<384xf32>>> {tf_saved_model.bound_input = @"__sm_node893___model.layer-91.moving_variance"} loc(unknown), %arg156: tensor<!tf_type.resource<tensor<3x3x384x1xf32>>> {tf_saved_model.bound_input = @"__sm_node906___model.layer-93.depthwise_kernel"} loc(unknown), %arg157: tensor<!tf_type.resource<tensor<384xf32>>> {tf_saved_model.bound_input = @"__sm_node914___model.layer-94.gamma"} loc(unknown), %arg158: tensor<!tf_type.resource<tensor<384xf32>>> {tf_saved_model.bound_input = @"__sm_node915___model.layer-94.beta"} loc(unknown), %arg159: tensor<!tf_type.resource<tensor<384xf32>>> {tf_saved_model.bound_input = @"__sm_node916___model.layer-94.moving_mean"} loc(unknown), %arg160: tensor<!tf_type.resource<tensor<384xf32>>> {tf_saved_model.bound_input = @"__sm_node917___model.layer-94.moving_variance"} loc(unknown), %arg161: tensor<!tf_type.resource<tensor<1x1x384x96xf32>>> {tf_saved_model.bound_input = @"__sm_node930___model.layer-96.kernel"} loc(unknown), %arg162: tensor<!tf_type.resource<tensor<96xf32>>> {tf_saved_model.bound_input = @"__sm_node938___model.layer-97.gamma"} loc(unknown), %arg163: tensor<!tf_type.resource<tensor<96xf32>>> {tf_saved_model.bound_input = @"__sm_node939___model.layer-97.beta"} loc(unknown), %arg164: tensor<!tf_type.resource<tensor<96xf32>>> {tf_saved_model.bound_input = @"__sm_node940___model.layer-97.moving_mean"} loc(unknown), %arg165: tensor<!tf_type.resource<tensor<96xf32>>> {tf_saved_model.bound_input = @"__sm_node941___model.layer-97.moving_variance"} loc(unknown), %arg166: tensor<!tf_type.resource<tensor<1x1x96x576xf32>>> {tf_saved_model.bound_input = @"__sm_node948___model.layer-98.kernel"} loc(unknown), %arg167: tensor<!tf_type.resource<tensor<576xf32>>> {tf_saved_model.bound_input = @"__sm_node956___model.layer-99.gamma"} loc(unknown), %arg168: tensor<!tf_type.resource<tensor<576xf32>>> {tf_saved_model.bound_input = @"__sm_node957___model.layer-99.beta"} loc(unknown), %arg169: tensor<!tf_type.resource<tensor<576xf32>>> {tf_saved_model.bound_input = @"__sm_node958___model.layer-99.moving_mean"} loc(unknown), %arg170: tensor<!tf_type.resource<tensor<576xf32>>> {tf_saved_model.bound_input = @"__sm_node959___model.layer-99.moving_variance"} loc(unknown), %arg171: tensor<!tf_type.resource<tensor<3x3x576x1xf32>>> {tf_saved_model.bound_input = @"__sm_node972___model.layer-101.depthwise_kernel"} loc(unknown), %arg172: tensor<!tf_type.resource<tensor<576xf32>>> {tf_saved_model.bound_input = @"__sm_node980___model.layer-102.gamma"} loc(unknown), %arg173: tensor<!tf_type.resource<tensor<576xf32>>> {tf_saved_model.bound_input = @"__sm_node981___model.layer-102.beta"} loc(unknown), %arg174: tensor<!tf_type.resource<tensor<576xf32>>> {tf_saved_model.bound_input = @"__sm_node982___model.layer-102.moving_mean"} loc(unknown), %arg175: tensor<!tf_type.resource<tensor<576xf32>>> {tf_saved_model.bound_input = @"__sm_node983___model.layer-102.moving_variance"} loc(unknown), %arg176: tensor<!tf_type.resource<tensor<1x1x576x96xf32>>> {tf_saved_model.bound_input = @"__sm_node996___model.layer-104.kernel"} loc(unknown), %arg177: tensor<!tf_type.resource<tensor<96xf32>>> {tf_saved_model.bound_input = @"__sm_node1004___model.layer-105.gamma"} loc(unknown), %arg178: tensor<!tf_type.resource<tensor<96xf32>>> {tf_saved_model.bound_input = @"__sm_node1005___model.layer-105.beta"} loc(unknown), %arg179: tensor<!tf_type.resource<tensor<96xf32>>> {tf_saved_model.bound_input = @"__sm_node1006___model.layer-105.moving_mean"} loc(unknown), %arg180: tensor<!tf_type.resource<tensor<96xf32>>> {tf_saved_model.bound_input = @"__sm_node1007___model.layer-105.moving_variance"} loc(unknown), %arg181: tensor<!tf_type.resource<tensor<1x1x96x576xf32>>> {tf_saved_model.bound_input = @"__sm_node1020___model.layer-107.kernel"} loc(unknown), %arg182: tensor<!tf_type.resource<tensor<576xf32>>> {tf_saved_model.bound_input = @"__sm_node1028___model.layer-108.gamma"} loc(unknown), %arg183: tensor<!tf_type.resource<tensor<576xf32>>> {tf_saved_model.bound_input = @"__sm_node1029___model.layer-108.beta"} loc(unknown), %arg184: tensor<!tf_type.resource<tensor<576xf32>>> {tf_saved_model.bound_input = @"__sm_node1030___model.layer-108.moving_mean"} loc(unknown), %arg185: tensor<!tf_type.resource<tensor<576xf32>>> {tf_saved_model.bound_input = @"__sm_node1031___model.layer-108.moving_variance"} loc(unknown), %arg186: tensor<!tf_type.resource<tensor<3x3x576x1xf32>>> {tf_saved_model.bound_input = @"__sm_node1044___model.layer-110.depthwise_kernel"} loc(unknown), %arg187: tensor<!tf_type.resource<tensor<576xf32>>> {tf_saved_model.bound_input = @"__sm_node1052___model.layer-111.gamma"} loc(unknown), %arg188: tensor<!tf_type.resource<tensor<576xf32>>> {tf_saved_model.bound_input = @"__sm_node1053___model.layer-111.beta"} loc(unknown), %arg189: tensor<!tf_type.resource<tensor<576xf32>>> {tf_saved_model.bound_input = @"__sm_node1054___model.layer-111.moving_mean"} loc(unknown), %arg190: tensor<!tf_type.resource<tensor<576xf32>>> {tf_saved_model.bound_input = @"__sm_node1055___model.layer-111.moving_variance"} loc(unknown), %arg191: tensor<!tf_type.resource<tensor<1x1x576x96xf32>>> {tf_saved_model.bound_input = @"__sm_node1068___model.layer-113.kernel"} loc(unknown), %arg192: tensor<!tf_type.resource<tensor<96xf32>>> {tf_saved_model.bound_input = @"__sm_node1076___model.layer-114.gamma"} loc(unknown), %arg193: tensor<!tf_type.resource<tensor<96xf32>>> {tf_saved_model.bound_input = @"__sm_node1077___model.layer-114.beta"} loc(unknown), %arg194: tensor<!tf_type.resource<tensor<96xf32>>> {tf_saved_model.bound_input = @"__sm_node1078___model.layer-114.moving_mean"} loc(unknown), %arg195: tensor<!tf_type.resource<tensor<96xf32>>> {tf_saved_model.bound_input = @"__sm_node1079___model.layer-114.moving_variance"} loc(unknown), %arg196: tensor<!tf_type.resource<tensor<1x1x96x576xf32>>> {tf_saved_model.bound_input = @"__sm_node1092___model.layer-116.kernel"} loc(unknown), %arg197: tensor<!tf_type.resource<tensor<576xf32>>> {tf_saved_model.bound_input = @"__sm_node1100___model.layer-117.gamma"} loc(unknown), %arg198: tensor<!tf_type.resource<tensor<576xf32>>> {tf_saved_model.bound_input = @"__sm_node1101___model.layer-117.beta"} loc(unknown), %arg199: tensor<!tf_type.resource<tensor<576xf32>>> {tf_saved_model.bound_input = @"__sm_node1102___model.layer-117.moving_mean"} loc(unknown), %arg200: tensor<!tf_type.resource<tensor<576xf32>>> {tf_saved_model.bound_input = @"__sm_node1103___model.layer-117.moving_variance"} loc(unknown), %arg201: tensor<!tf_type.resource<tensor<3x3x576x1xf32>>> {tf_saved_model.bound_input = @"__sm_node1122___model.layer-120.depthwise_kernel"} loc(unknown), %arg202: tensor<!tf_type.resource<tensor<576xf32>>> {tf_saved_model.bound_input = @"__sm_node1130___model.layer-121.gamma"} loc(unknown), %arg203: tensor<!tf_type.resource<tensor<576xf32>>> {tf_saved_model.bound_input = @"__sm_node1131___model.layer-121.beta"} loc(unknown), %arg204: tensor<!tf_type.resource<tensor<576xf32>>> {tf_saved_model.bound_input = @"__sm_node1132___model.layer-121.moving_mean"} loc(unknown), %arg205: tensor<!tf_type.resource<tensor<576xf32>>> {tf_saved_model.bound_input = @"__sm_node1133___model.layer-121.moving_variance"} loc(unknown), %arg206: tensor<!tf_type.resource<tensor<1x1x576x160xf32>>> {tf_saved_model.bound_input = @"__sm_node1146___model.layer-123.kernel"} loc(unknown), %arg207: tensor<!tf_type.resource<tensor<160xf32>>> {tf_saved_model.bound_input = @"__sm_node1154___model.layer-124.gamma"} loc(unknown), %arg208: tensor<!tf_type.resource<tensor<160xf32>>> {tf_saved_model.bound_input = @"__sm_node1155___model.layer-124.beta"} loc(unknown), %arg209: tensor<!tf_type.resource<tensor<160xf32>>> {tf_saved_model.bound_input = @"__sm_node1156___model.layer-124.moving_mean"} loc(unknown), %arg210: tensor<!tf_type.resource<tensor<160xf32>>> {tf_saved_model.bound_input = @"__sm_node1157___model.layer-124.moving_variance"} loc(unknown), %arg211: tensor<!tf_type.resource<tensor<1x1x160x960xf32>>> {tf_saved_model.bound_input = @"__sm_node1164___model.layer-125.kernel"} loc(unknown), %arg212: tensor<!tf_type.resource<tensor<960xf32>>> {tf_saved_model.bound_input = @"__sm_node1172___model.layer-126.gamma"} loc(unknown), %arg213: tensor<!tf_type.resource<tensor<960xf32>>> {tf_saved_model.bound_input = @"__sm_node1173___model.layer-126.beta"} loc(unknown), %arg214: tensor<!tf_type.resource<tensor<960xf32>>> {tf_saved_model.bound_input = @"__sm_node1174___model.layer-126.moving_mean"} loc(unknown), %arg215: tensor<!tf_type.resource<tensor<960xf32>>> {tf_saved_model.bound_input = @"__sm_node1175___model.layer-126.moving_variance"} loc(unknown), %arg216: tensor<!tf_type.resource<tensor<3x3x960x1xf32>>> {tf_saved_model.bound_input = @"__sm_node1188___model.layer-128.depthwise_kernel"} loc(unknown), %arg217: tensor<!tf_type.resource<tensor<960xf32>>> {tf_saved_model.bound_input = @"__sm_node1196___model.layer-129.gamma"} loc(unknown), %arg218: tensor<!tf_type.resource<tensor<960xf32>>> {tf_saved_model.bound_input = @"__sm_node1197___model.layer-129.beta"} loc(unknown), %arg219: tensor<!tf_type.resource<tensor<960xf32>>> {tf_saved_model.bound_input = @"__sm_node1198___model.layer-129.moving_mean"} loc(unknown), %arg220: tensor<!tf_type.resource<tensor<960xf32>>> {tf_saved_model.bound_input = @"__sm_node1199___model.layer-129.moving_variance"} loc(unknown), %arg221: tensor<!tf_type.resource<tensor<1x1x960x160xf32>>> {tf_saved_model.bound_input = @"__sm_node1212___model.layer-131.kernel"} loc(unknown), %arg222: tensor<!tf_type.resource<tensor<160xf32>>> {tf_saved_model.bound_input = @"__sm_node1220___model.layer-132.gamma"} loc(unknown), %arg223: tensor<!tf_type.resource<tensor<160xf32>>> {tf_saved_model.bound_input = @"__sm_node1221___model.layer-132.beta"} loc(unknown), %arg224: tensor<!tf_type.resource<tensor<160xf32>>> {tf_saved_model.bound_input = @"__sm_node1222___model.layer-132.moving_mean"} loc(unknown), %arg225: tensor<!tf_type.resource<tensor<160xf32>>> {tf_saved_model.bound_input = @"__sm_node1223___model.layer-132.moving_variance"} loc(unknown), %arg226: tensor<!tf_type.resource<tensor<1x1x160x960xf32>>> {tf_saved_model.bound_input = @"__sm_node1236___model.layer-134.kernel"} loc(unknown), %arg227: tensor<!tf_type.resource<tensor<960xf32>>> {tf_saved_model.bound_input = @"__sm_node1244___model.layer-135.gamma"} loc(unknown), %arg228: tensor<!tf_type.resource<tensor<960xf32>>> {tf_saved_model.bound_input = @"__sm_node1245___model.layer-135.beta"} loc(unknown), %arg229: tensor<!tf_type.resource<tensor<960xf32>>> {tf_saved_model.bound_input = @"__sm_node1246___model.layer-135.moving_mean"} loc(unknown), %arg230: tensor<!tf_type.resource<tensor<960xf32>>> {tf_saved_model.bound_input = @"__sm_node1247___model.layer-135.moving_variance"} loc(unknown), %arg231: tensor<!tf_type.resource<tensor<3x3x960x1xf32>>> {tf_saved_model.bound_input = @"__sm_node1260___model.layer-137.depthwise_kernel"} loc(unknown), %arg232: tensor<!tf_type.resource<tensor<960xf32>>> {tf_saved_model.bound_input = @"__sm_node1268___model.layer-138.gamma"} loc(unknown), %arg233: tensor<!tf_type.resource<tensor<960xf32>>> {tf_saved_model.bound_input = @"__sm_node1269___model.layer-138.beta"} loc(unknown), %arg234: tensor<!tf_type.resource<tensor<960xf32>>> {tf_saved_model.bound_input = @"__sm_node1270___model.layer-138.moving_mean"} loc(unknown), %arg235: tensor<!tf_type.resource<tensor<960xf32>>> {tf_saved_model.bound_input = @"__sm_node1271___model.layer-138.moving_variance"} loc(unknown), %arg236: tensor<!tf_type.resource<tensor<1x1x960x160xf32>>> {tf_saved_model.bound_input = @"__sm_node1284___model.layer-140.kernel"} loc(unknown), %arg237: tensor<!tf_type.resource<tensor<160xf32>>> {tf_saved_model.bound_input = @"__sm_node1292___model.layer-141.gamma"} loc(unknown), %arg238: tensor<!tf_type.resource<tensor<160xf32>>> {tf_saved_model.bound_input = @"__sm_node1293___model.layer-141.beta"} loc(unknown), %arg239: tensor<!tf_type.resource<tensor<160xf32>>> {tf_saved_model.bound_input = @"__sm_node1294___model.layer-141.moving_mean"} loc(unknown), %arg240: tensor<!tf_type.resource<tensor<160xf32>>> {tf_saved_model.bound_input = @"__sm_node1295___model.layer-141.moving_variance"} loc(unknown), %arg241: tensor<!tf_type.resource<tensor<1x1x160x960xf32>>> {tf_saved_model.bound_input = @"__sm_node1308___model.layer-143.kernel"} loc(unknown), %arg242: tensor<!tf_type.resource<tensor<960xf32>>> {tf_saved_model.bound_input = @"__sm_node1316___model.layer-144.gamma"} loc(unknown), %arg243: tensor<!tf_type.resource<tensor<960xf32>>> {tf_saved_model.bound_input = @"__sm_node1317___model.layer-144.beta"} loc(unknown), %arg244: tensor<!tf_type.resource<tensor<960xf32>>> {tf_saved_model.bound_input = @"__sm_node1318___model.layer-144.moving_mean"} loc(unknown), %arg245: tensor<!tf_type.resource<tensor<960xf32>>> {tf_saved_model.bound_input = @"__sm_node1319___model.layer-144.moving_variance"} loc(unknown), %arg246: tensor<!tf_type.resource<tensor<3x3x960x1xf32>>> {tf_saved_model.bound_input = @"__sm_node1332___model.layer-146.depthwise_kernel"} loc(unknown), %arg247: tensor<!tf_type.resource<tensor<960xf32>>> {tf_saved_model.bound_input = @"__sm_node1340___model.layer-147.gamma"} loc(unknown), %arg248: tensor<!tf_type.resource<tensor<960xf32>>> {tf_saved_model.bound_input = @"__sm_node1341___model.layer-147.beta"} loc(unknown), %arg249: tensor<!tf_type.resource<tensor<960xf32>>> {tf_saved_model.bound_input = @"__sm_node1342___model.layer-147.moving_mean"} loc(unknown), %arg250: tensor<!tf_type.resource<tensor<960xf32>>> {tf_saved_model.bound_input = @"__sm_node1343___model.layer-147.moving_variance"} loc(unknown), %arg251: tensor<!tf_type.resource<tensor<1x1x960x320xf32>>> {tf_saved_model.bound_input = @"__sm_node1356___model.layer-149.kernel"} loc(unknown), %arg252: tensor<!tf_type.resource<tensor<320xf32>>> {tf_saved_model.bound_input = @"__sm_node1364___model.layer-150.gamma"} loc(unknown), %arg253: tensor<!tf_type.resource<tensor<320xf32>>> {tf_saved_model.bound_input = @"__sm_node1365___model.layer-150.beta"} loc(unknown), %arg254: tensor<!tf_type.resource<tensor<320xf32>>> {tf_saved_model.bound_input = @"__sm_node1366___model.layer-150.moving_mean"} loc(unknown), %arg255: tensor<!tf_type.resource<tensor<320xf32>>> {tf_saved_model.bound_input = @"__sm_node1367___model.layer-150.moving_variance"} loc(unknown), %arg256: tensor<!tf_type.resource<tensor<1x1x320x1280xf32>>> {tf_saved_model.bound_input = @"__sm_node1374___model.layer-151.kernel"} loc(unknown), %arg257: tensor<!tf_type.resource<tensor<1280xf32>>> {tf_saved_model.bound_input = @"__sm_node1382___model.layer-152.gamma"} loc(unknown), %arg258: tensor<!tf_type.resource<tensor<1280xf32>>> {tf_saved_model.bound_input = @"__sm_node1383___model.layer-152.beta"} loc(unknown), %arg259: tensor<!tf_type.resource<tensor<1280xf32>>> {tf_saved_model.bound_input = @"__sm_node1384___model.layer-152.moving_mean"} loc(unknown), %arg260: tensor<!tf_type.resource<tensor<1280xf32>>> {tf_saved_model.bound_input = @"__sm_node1385___model.layer-152.moving_variance"} loc(unknown), %arg261: tensor<!tf_type.resource<tensor<1280x1000xf32>>> {tf_saved_model.bound_input = @"__sm_node1404___model.layer-155.kernel"} loc(unknown), %arg262: tensor<!tf_type.resource<tensor<1000xf32>>> {tf_saved_model.bound_input = @"__sm_node1405___model.layer-155.bias"} loc(unknown)) -> (tensor<1x1000xf32> {tf_saved_model.index_path = []}) attributes {tf._construction_context = "kEagerRuntime", tf._input_shapes = [#tf_type.shape<1x224x224x3>, #tf_type.shape<>, #tf_type.shape<>, #tf_type.shape<>, #tf_type.shape<>, #tf_type.shape<>, #tf_type.shape<>, #tf_type.shape<>, #tf_type.shape<>, #tf_type.shape<>, #tf_type.shape<>, #tf_type.shape<>, #tf_type.shape<>, #tf_type.shape<>, #tf_type.shape<>, #tf_type.shape<>, #tf_type.shape<>, #tf_type.shape<>, #tf_type.shape<>, #tf_type.shape<>, #tf_type.shape<>, #tf_type.shape<>, #tf_type.shape<>, #tf_type.shape<>, #tf_type.shape<>, #tf_type.shape<>, #tf_type.shape<>, #tf_type.shape<>, #tf_type.shape<>, #tf_type.shape<>, #tf_type.shape<>, #tf_type.shape<>, #tf_type.shape<>, #tf_type.shape<>, #tf_type.shape<>, #tf_type.shape<>, #tf_type.shape<>, #tf_type.shape<>, #tf_type.shape<>, #tf_type.shape<>, #tf_type.shape<>, #tf_type.shape<>, #tf_type.shape<>, #tf_type.shape<>, #tf_type.shape<>, #tf_type.shape<>, #tf_type.shape<>, #tf_type.shape<>, #tf_type.shape<>, #tf_type.shape<>, #tf_type.shape<>, #tf_type.shape<>, #tf_type.shape<>, #tf_type.shape<>, #tf_type.shape<>, #tf_type.shape<>, #tf_type.shape<>, #tf_type.shape<>, #tf_type.shape<>, #tf_type.shape<>, #tf_type.shape<>, #tf_type.shape<>, #tf_type.shape<>, #tf_type.shape<>, #tf_type.shape<>, #tf_type.shape<>, #tf_type.shape<>, #tf_type.shape<>, #tf_type.shape<>, #tf_type.shape<>, #tf_type.shape<>, #tf_type.shape<>, #tf_type.shape<>, #tf_type.shape<>, #tf_type.shape<>, #tf_type.shape<>, #tf_type.shape<>, #tf_type.shape<>, #tf_type.shape<>, #tf_type.shape<>, #tf_type.shape<>, #tf_type.shape<>, #tf_type.shape<>, #tf_type.shape<>, #tf_type.shape<>, #tf_type.shape<>, #tf_type.shape<>, #tf_type.shape<>, #tf_type.shape<>, #tf_type.shape<>, #tf_type.shape<>, #tf_type.shape<>, #tf_type.shape<>, #tf_type.shape<>, #tf_type.shape<>, #tf_type.shape<>, #tf_type.shape<>, #tf_type.shape<>, #tf_type.shape<>, #tf_type.shape<>, #tf_type.shape<>, #tf_type.shape<>, #tf_type.shape<>, #tf_type.shape<>, #tf_type.shape<>, #tf_type.shape<>, #tf_type.shape<>, #tf_type.shape<>, #tf_type.shape<>, #tf_type.shape<>, #tf_type.shape<>, #tf_type.shape<>, #tf_type.shape<>, #tf_type.shape<>, #tf_type.shape<>, #tf_type.shape<>, #tf_type.shape<>, #tf_type.shape<>, #tf_type.shape<>, #tf_type.shape<>, #tf_type.shape<>, #tf_type.shape<>, #tf_type.shape<>, #tf_type.shape<>, #tf_type.shape<>, #tf_type.shape<>, #tf_type.shape<>, #tf_type.shape<>, #tf_type.shape<>, #tf_type.shape<>, #tf_type.shape<>, #tf_type.shape<>, #tf_type.shape<>, #tf_type.shape<>, #tf_type.shape<>, #tf_type.shape<>, #tf_type.shape<>, #tf_type.shape<>, #tf_type.shape<>, #tf_type.shape<>, #tf_type.shape<>, #tf_type.shape<>, #tf_type.shape<>, #tf_type.shape<>, #tf_type.shape<>, #tf_type.shape<>, #tf_type.shape<>, #tf_type.shape<>, #tf_type.shape<>, #tf_type.shape<>, #tf_type.shape<>, #tf_type.shape<>, #tf_type.shape<>, #tf_type.shape<>, #tf_type.shape<>, #tf_type.shape<>, #tf_type.shape<>, #tf_type.shape<>, #tf_type.shape<>, #tf_type.shape<>, #tf_type.shape<>, #tf_type.shape<>, #tf_type.shape<>, #tf_type.shape<>, #tf_type.shape<>, #tf_type.shape<>, #tf_type.shape<>, #tf_type.shape<>, #tf_type.shape<>, #tf_type.shape<>, #tf_type.shape<>, #tf_type.shape<>, #tf_type.shape<>, #tf_type.shape<>, #tf_type.shape<>, #tf_type.shape<>, #tf_type.shape<>, #tf_type.shape<>, #tf_type.shape<>, #tf_type.shape<>, #tf_type.shape<>, #tf_type.shape<>, #tf_type.shape<>, #tf_type.shape<>, #tf_type.shape<>, #tf_type.shape<>, #tf_type.shape<>, #tf_type.shape<>, #tf_type.shape<>, #tf_type.shape<>, #tf_type.shape<>, #tf_type.shape<>, #tf_type.shape<>, #tf_type.shape<>, #tf_type.shape<>, #tf_type.shape<>, #tf_type.shape<>, #tf_type.shape<>, #tf_type.shape<>, #tf_type.shape<>, #tf_type.shape<>, #tf_type.shape<>, #tf_type.shape<>, #tf_type.shape<>, #tf_type.shape<>, #tf_type.shape<>, #tf_type.shape<>, #tf_type.shape<>, #tf_type.shape<>, #tf_type.shape<>, #tf_type.shape<>, #tf_type.shape<>, #tf_type.shape<>, #tf_type.shape<>, #tf_type.shape<>, #tf_type.shape<>, #tf_type.shape<>, #tf_type.shape<>, #tf_type.shape<>, #tf_type.shape<>, #tf_type.shape<>, #tf_type.shape<>, #tf_type.shape<>, #tf_type.shape<>, #tf_type.shape<>, #tf_type.shape<>, #tf_type.shape<>, #tf_type.shape<>, #tf_type.shape<>, #tf_type.shape<>, #tf_type.shape<>, #tf_type.shape<>, #tf_type.shape<>, #tf_type.shape<>, #tf_type.shape<>, #tf_type.shape<>, #tf_type.shape<>, #tf_type.shape<>, #tf_type.shape<>, #tf_type.shape<>, #tf_type.shape<>, #tf_type.shape<>, #tf_type.shape<>, #tf_type.shape<>, #tf_type.shape<>, #tf_type.shape<>, #tf_type.shape<>, #tf_type.shape<>, #tf_type.shape<>, #tf_type.shape<>, #tf_type.shape<>, #tf_type.shape<>, #tf_type.shape<>, #tf_type.shape<>, #tf_type.shape<>, #tf_type.shape<>, #tf_type.shape<>, #tf_type.shape<>, #tf_type.shape<>, #tf_type.shape<>, #tf_type.shape<>, #tf_type.shape<>, #tf_type.shape<>], tf.signature.is_stateful, tf_saved_model.exported_names = ["predict"]} {
    %0 = "tf.Cast"(%arg1) {Truncate = false} : (tensor<!tf_type.resource<tensor<3x3x3x32xf32>>>) -> tensor<!tf_type.resource> loc(#loc0)
    %1 = "tf.Cast"(%arg2) {Truncate = false} : (tensor<!tf_type.resource<tensor<32xf32>>>) -> tensor<!tf_type.resource> loc(#loc0)
    %2 = "tf.Cast"(%arg3) {Truncate = false} : (tensor<!tf_type.resource<tensor<32xf32>>>) -> tensor<!tf_type.resource> loc(#loc0)
    %3 = "tf.Cast"(%arg4) {Truncate = false} : (tensor<!tf_type.resource<tensor<32xf32>>>) -> tensor<!tf_type.resource> loc(#loc0)
    %4 = "tf.Cast"(%arg5) {Truncate = false} : (tensor<!tf_type.resource<tensor<32xf32>>>) -> tensor<!tf_type.resource> loc(#loc0)
    %5 = "tf.Cast"(%arg6) {Truncate = false} : (tensor<!tf_type.resource<tensor<3x3x32x1xf32>>>) -> tensor<!tf_type.resource> loc(#loc0)
    %6 = "tf.Cast"(%arg7) {Truncate = false} : (tensor<!tf_type.resource<tensor<32xf32>>>) -> tensor<!tf_type.resource> loc(#loc0)
    %7 = "tf.Cast"(%arg8) {Truncate = false} : (tensor<!tf_type.resource<tensor<32xf32>>>) -> tensor<!tf_type.resource> loc(#loc0)
    %8 = "tf.Cast"(%arg9) {Truncate = false} : (tensor<!tf_type.resource<tensor<32xf32>>>) -> tensor<!tf_type.resource> loc(#loc0)
    %9 = "tf.Cast"(%arg10) {Truncate = false} : (tensor<!tf_type.resource<tensor<32xf32>>>) -> tensor<!tf_type.resource> loc(#loc0)
    %10 = "tf.Cast"(%arg11) {Truncate = false} : (tensor<!tf_type.resource<tensor<1x1x32x16xf32>>>) -> tensor<!tf_type.resource> loc(#loc0)
    %11 = "tf.Cast"(%arg12) {Truncate = false} : (tensor<!tf_type.resource<tensor<16xf32>>>) -> tensor<!tf_type.resource> loc(#loc0)
    %12 = "tf.Cast"(%arg13) {Truncate = false} : (tensor<!tf_type.resource<tensor<16xf32>>>) -> tensor<!tf_type.resource> loc(#loc0)
    %13 = "tf.Cast"(%arg14) {Truncate = false} : (tensor<!tf_type.resource<tensor<16xf32>>>) -> tensor<!tf_type.resource> loc(#loc0)
    %14 = "tf.Cast"(%arg15) {Truncate = false} : (tensor<!tf_type.resource<tensor<16xf32>>>) -> tensor<!tf_type.resource> loc(#loc0)
    %15 = "tf.Cast"(%arg16) {Truncate = false} : (tensor<!tf_type.resource<tensor<1x1x16x96xf32>>>) -> tensor<!tf_type.resource> loc(#loc0)
    %16 = "tf.Cast"(%arg17) {Truncate = false} : (tensor<!tf_type.resource<tensor<96xf32>>>) -> tensor<!tf_type.resource> loc(#loc0)
    %17 = "tf.Cast"(%arg18) {Truncate = false} : (tensor<!tf_type.resource<tensor<96xf32>>>) -> tensor<!tf_type.resource> loc(#loc0)
    %18 = "tf.Cast"(%arg19) {Truncate = false} : (tensor<!tf_type.resource<tensor<96xf32>>>) -> tensor<!tf_type.resource> loc(#loc0)
    %19 = "tf.Cast"(%arg20) {Truncate = false} : (tensor<!tf_type.resource<tensor<96xf32>>>) -> tensor<!tf_type.resource> loc(#loc0)
    %20 = "tf.Cast"(%arg21) {Truncate = false} : (tensor<!tf_type.resource<tensor<3x3x96x1xf32>>>) -> tensor<!tf_type.resource> loc(#loc0)
    %21 = "tf.Cast"(%arg22) {Truncate = false} : (tensor<!tf_type.resource<tensor<96xf32>>>) -> tensor<!tf_type.resource> loc(#loc0)
    %22 = "tf.Cast"(%arg23) {Truncate = false} : (tensor<!tf_type.resource<tensor<96xf32>>>) -> tensor<!tf_type.resource> loc(#loc0)
    %23 = "tf.Cast"(%arg24) {Truncate = false} : (tensor<!tf_type.resource<tensor<96xf32>>>) -> tensor<!tf_type.resource> loc(#loc0)
    %24 = "tf.Cast"(%arg25) {Truncate = false} : (tensor<!tf_type.resource<tensor<96xf32>>>) -> tensor<!tf_type.resource> loc(#loc0)
    %25 = "tf.Cast"(%arg26) {Truncate = false} : (tensor<!tf_type.resource<tensor<1x1x96x24xf32>>>) -> tensor<!tf_type.resource> loc(#loc0)
    %26 = "tf.Cast"(%arg27) {Truncate = false} : (tensor<!tf_type.resource<tensor<24xf32>>>) -> tensor<!tf_type.resource> loc(#loc0)
    %27 = "tf.Cast"(%arg28) {Truncate = false} : (tensor<!tf_type.resource<tensor<24xf32>>>) -> tensor<!tf_type.resource> loc(#loc0)
    %28 = "tf.Cast"(%arg29) {Truncate = false} : (tensor<!tf_type.resource<tensor<24xf32>>>) -> tensor<!tf_type.resource> loc(#loc0)
    %29 = "tf.Cast"(%arg30) {Truncate = false} : (tensor<!tf_type.resource<tensor<24xf32>>>) -> tensor<!tf_type.resource> loc(#loc0)
    %30 = "tf.Cast"(%arg31) {Truncate = false} : (tensor<!tf_type.resource<tensor<1x1x24x144xf32>>>) -> tensor<!tf_type.resource> loc(#loc0)
    %31 = "tf.Cast"(%arg32) {Truncate = false} : (tensor<!tf_type.resource<tensor<144xf32>>>) -> tensor<!tf_type.resource> loc(#loc0)
    %32 = "tf.Cast"(%arg33) {Truncate = false} : (tensor<!tf_type.resource<tensor<144xf32>>>) -> tensor<!tf_type.resource> loc(#loc0)
    %33 = "tf.Cast"(%arg34) {Truncate = false} : (tensor<!tf_type.resource<tensor<144xf32>>>) -> tensor<!tf_type.resource> loc(#loc0)
    %34 = "tf.Cast"(%arg35) {Truncate = false} : (tensor<!tf_type.resource<tensor<144xf32>>>) -> tensor<!tf_type.resource> loc(#loc0)
    %35 = "tf.Cast"(%arg36) {Truncate = false} : (tensor<!tf_type.resource<tensor<3x3x144x1xf32>>>) -> tensor<!tf_type.resource> loc(#loc0)
    %36 = "tf.Cast"(%arg37) {Truncate = false} : (tensor<!tf_type.resource<tensor<144xf32>>>) -> tensor<!tf_type.resource> loc(#loc0)
    %37 = "tf.Cast"(%arg38) {Truncate = false} : (tensor<!tf_type.resource<tensor<144xf32>>>) -> tensor<!tf_type.resource> loc(#loc0)
    %38 = "tf.Cast"(%arg39) {Truncate = false} : (tensor<!tf_type.resource<tensor<144xf32>>>) -> tensor<!tf_type.resource> loc(#loc0)
    %39 = "tf.Cast"(%arg40) {Truncate = false} : (tensor<!tf_type.resource<tensor<144xf32>>>) -> tensor<!tf_type.resource> loc(#loc0)
    %40 = "tf.Cast"(%arg41) {Truncate = false} : (tensor<!tf_type.resource<tensor<1x1x144x24xf32>>>) -> tensor<!tf_type.resource> loc(#loc0)
    %41 = "tf.Cast"(%arg42) {Truncate = false} : (tensor<!tf_type.resource<tensor<24xf32>>>) -> tensor<!tf_type.resource> loc(#loc0)
    %42 = "tf.Cast"(%arg43) {Truncate = false} : (tensor<!tf_type.resource<tensor<24xf32>>>) -> tensor<!tf_type.resource> loc(#loc0)
    %43 = "tf.Cast"(%arg44) {Truncate = false} : (tensor<!tf_type.resource<tensor<24xf32>>>) -> tensor<!tf_type.resource> loc(#loc0)
    %44 = "tf.Cast"(%arg45) {Truncate = false} : (tensor<!tf_type.resource<tensor<24xf32>>>) -> tensor<!tf_type.resource> loc(#loc0)
    %45 = "tf.Cast"(%arg46) {Truncate = false} : (tensor<!tf_type.resource<tensor<1x1x24x144xf32>>>) -> tensor<!tf_type.resource> loc(#loc0)
    %46 = "tf.Cast"(%arg47) {Truncate = false} : (tensor<!tf_type.resource<tensor<144xf32>>>) -> tensor<!tf_type.resource> loc(#loc0)
    %47 = "tf.Cast"(%arg48) {Truncate = false} : (tensor<!tf_type.resource<tensor<144xf32>>>) -> tensor<!tf_type.resource> loc(#loc0)
    %48 = "tf.Cast"(%arg49) {Truncate = false} : (tensor<!tf_type.resource<tensor<144xf32>>>) -> tensor<!tf_type.resource> loc(#loc0)
    %49 = "tf.Cast"(%arg50) {Truncate = false} : (tensor<!tf_type.resource<tensor<144xf32>>>) -> tensor<!tf_type.resource> loc(#loc0)
    %50 = "tf.Cast"(%arg51) {Truncate = false} : (tensor<!tf_type.resource<tensor<3x3x144x1xf32>>>) -> tensor<!tf_type.resource> loc(#loc0)
    %51 = "tf.Cast"(%arg52) {Truncate = false} : (tensor<!tf_type.resource<tensor<144xf32>>>) -> tensor<!tf_type.resource> loc(#loc0)
    %52 = "tf.Cast"(%arg53) {Truncate = false} : (tensor<!tf_type.resource<tensor<144xf32>>>) -> tensor<!tf_type.resource> loc(#loc0)
    %53 = "tf.Cast"(%arg54) {Truncate = false} : (tensor<!tf_type.resource<tensor<144xf32>>>) -> tensor<!tf_type.resource> loc(#loc0)
    %54 = "tf.Cast"(%arg55) {Truncate = false} : (tensor<!tf_type.resource<tensor<144xf32>>>) -> tensor<!tf_type.resource> loc(#loc0)
    %55 = "tf.Cast"(%arg56) {Truncate = false} : (tensor<!tf_type.resource<tensor<1x1x144x32xf32>>>) -> tensor<!tf_type.resource> loc(#loc0)
    %56 = "tf.Cast"(%arg57) {Truncate = false} : (tensor<!tf_type.resource<tensor<32xf32>>>) -> tensor<!tf_type.resource> loc(#loc0)
    %57 = "tf.Cast"(%arg58) {Truncate = false} : (tensor<!tf_type.resource<tensor<32xf32>>>) -> tensor<!tf_type.resource> loc(#loc0)
    %58 = "tf.Cast"(%arg59) {Truncate = false} : (tensor<!tf_type.resource<tensor<32xf32>>>) -> tensor<!tf_type.resource> loc(#loc0)
    %59 = "tf.Cast"(%arg60) {Truncate = false} : (tensor<!tf_type.resource<tensor<32xf32>>>) -> tensor<!tf_type.resource> loc(#loc0)
    %60 = "tf.Cast"(%arg61) {Truncate = false} : (tensor<!tf_type.resource<tensor<1x1x32x192xf32>>>) -> tensor<!tf_type.resource> loc(#loc0)
    %61 = "tf.Cast"(%arg62) {Truncate = false} : (tensor<!tf_type.resource<tensor<192xf32>>>) -> tensor<!tf_type.resource> loc(#loc0)
    %62 = "tf.Cast"(%arg63) {Truncate = false} : (tensor<!tf_type.resource<tensor<192xf32>>>) -> tensor<!tf_type.resource> loc(#loc0)
    %63 = "tf.Cast"(%arg64) {Truncate = false} : (tensor<!tf_type.resource<tensor<192xf32>>>) -> tensor<!tf_type.resource> loc(#loc0)
    %64 = "tf.Cast"(%arg65) {Truncate = false} : (tensor<!tf_type.resource<tensor<192xf32>>>) -> tensor<!tf_type.resource> loc(#loc0)
    %65 = "tf.Cast"(%arg66) {Truncate = false} : (tensor<!tf_type.resource<tensor<3x3x192x1xf32>>>) -> tensor<!tf_type.resource> loc(#loc0)
    %66 = "tf.Cast"(%arg67) {Truncate = false} : (tensor<!tf_type.resource<tensor<192xf32>>>) -> tensor<!tf_type.resource> loc(#loc0)
    %67 = "tf.Cast"(%arg68) {Truncate = false} : (tensor<!tf_type.resource<tensor<192xf32>>>) -> tensor<!tf_type.resource> loc(#loc0)
    %68 = "tf.Cast"(%arg69) {Truncate = false} : (tensor<!tf_type.resource<tensor<192xf32>>>) -> tensor<!tf_type.resource> loc(#loc0)
    %69 = "tf.Cast"(%arg70) {Truncate = false} : (tensor<!tf_type.resource<tensor<192xf32>>>) -> tensor<!tf_type.resource> loc(#loc0)
    %70 = "tf.Cast"(%arg71) {Truncate = false} : (tensor<!tf_type.resource<tensor<1x1x192x32xf32>>>) -> tensor<!tf_type.resource> loc(#loc0)
    %71 = "tf.Cast"(%arg72) {Truncate = false} : (tensor<!tf_type.resource<tensor<32xf32>>>) -> tensor<!tf_type.resource> loc(#loc0)
    %72 = "tf.Cast"(%arg73) {Truncate = false} : (tensor<!tf_type.resource<tensor<32xf32>>>) -> tensor<!tf_type.resource> loc(#loc0)
    %73 = "tf.Cast"(%arg74) {Truncate = false} : (tensor<!tf_type.resource<tensor<32xf32>>>) -> tensor<!tf_type.resource> loc(#loc0)
    %74 = "tf.Cast"(%arg75) {Truncate = false} : (tensor<!tf_type.resource<tensor<32xf32>>>) -> tensor<!tf_type.resource> loc(#loc0)
    %75 = "tf.Cast"(%arg76) {Truncate = false} : (tensor<!tf_type.resource<tensor<1x1x32x192xf32>>>) -> tensor<!tf_type.resource> loc(#loc0)
    %76 = "tf.Cast"(%arg77) {Truncate = false} : (tensor<!tf_type.resource<tensor<192xf32>>>) -> tensor<!tf_type.resource> loc(#loc0)
    %77 = "tf.Cast"(%arg78) {Truncate = false} : (tensor<!tf_type.resource<tensor<192xf32>>>) -> tensor<!tf_type.resource> loc(#loc0)
    %78 = "tf.Cast"(%arg79) {Truncate = false} : (tensor<!tf_type.resource<tensor<192xf32>>>) -> tensor<!tf_type.resource> loc(#loc0)
    %79 = "tf.Cast"(%arg80) {Truncate = false} : (tensor<!tf_type.resource<tensor<192xf32>>>) -> tensor<!tf_type.resource> loc(#loc0)
    %80 = "tf.Cast"(%arg81) {Truncate = false} : (tensor<!tf_type.resource<tensor<3x3x192x1xf32>>>) -> tensor<!tf_type.resource> loc(#loc0)
    %81 = "tf.Cast"(%arg82) {Truncate = false} : (tensor<!tf_type.resource<tensor<192xf32>>>) -> tensor<!tf_type.resource> loc(#loc0)
    %82 = "tf.Cast"(%arg83) {Truncate = false} : (tensor<!tf_type.resource<tensor<192xf32>>>) -> tensor<!tf_type.resource> loc(#loc0)
    %83 = "tf.Cast"(%arg84) {Truncate = false} : (tensor<!tf_type.resource<tensor<192xf32>>>) -> tensor<!tf_type.resource> loc(#loc0)
    %84 = "tf.Cast"(%arg85) {Truncate = false} : (tensor<!tf_type.resource<tensor<192xf32>>>) -> tensor<!tf_type.resource> loc(#loc0)
    %85 = "tf.Cast"(%arg86) {Truncate = false} : (tensor<!tf_type.resource<tensor<1x1x192x32xf32>>>) -> tensor<!tf_type.resource> loc(#loc0)
    %86 = "tf.Cast"(%arg87) {Truncate = false} : (tensor<!tf_type.resource<tensor<32xf32>>>) -> tensor<!tf_type.resource> loc(#loc0)
    %87 = "tf.Cast"(%arg88) {Truncate = false} : (tensor<!tf_type.resource<tensor<32xf32>>>) -> tensor<!tf_type.resource> loc(#loc0)
    %88 = "tf.Cast"(%arg89) {Truncate = false} : (tensor<!tf_type.resource<tensor<32xf32>>>) -> tensor<!tf_type.resource> loc(#loc0)
    %89 = "tf.Cast"(%arg90) {Truncate = false} : (tensor<!tf_type.resource<tensor<32xf32>>>) -> tensor<!tf_type.resource> loc(#loc0)
    %90 = "tf.Cast"(%arg91) {Truncate = false} : (tensor<!tf_type.resource<tensor<1x1x32x192xf32>>>) -> tensor<!tf_type.resource> loc(#loc0)
    %91 = "tf.Cast"(%arg92) {Truncate = false} : (tensor<!tf_type.resource<tensor<192xf32>>>) -> tensor<!tf_type.resource> loc(#loc0)
    %92 = "tf.Cast"(%arg93) {Truncate = false} : (tensor<!tf_type.resource<tensor<192xf32>>>) -> tensor<!tf_type.resource> loc(#loc0)
    %93 = "tf.Cast"(%arg94) {Truncate = false} : (tensor<!tf_type.resource<tensor<192xf32>>>) -> tensor<!tf_type.resource> loc(#loc0)
    %94 = "tf.Cast"(%arg95) {Truncate = false} : (tensor<!tf_type.resource<tensor<192xf32>>>) -> tensor<!tf_type.resource> loc(#loc0)
    %95 = "tf.Cast"(%arg96) {Truncate = false} : (tensor<!tf_type.resource<tensor<3x3x192x1xf32>>>) -> tensor<!tf_type.resource> loc(#loc0)
    %96 = "tf.Cast"(%arg97) {Truncate = false} : (tensor<!tf_type.resource<tensor<192xf32>>>) -> tensor<!tf_type.resource> loc(#loc0)
    %97 = "tf.Cast"(%arg98) {Truncate = false} : (tensor<!tf_type.resource<tensor<192xf32>>>) -> tensor<!tf_type.resource> loc(#loc0)
    %98 = "tf.Cast"(%arg99) {Truncate = false} : (tensor<!tf_type.resource<tensor<192xf32>>>) -> tensor<!tf_type.resource> loc(#loc0)
    %99 = "tf.Cast"(%arg100) {Truncate = false} : (tensor<!tf_type.resource<tensor<192xf32>>>) -> tensor<!tf_type.resource> loc(#loc0)
    %100 = "tf.Cast"(%arg101) {Truncate = false} : (tensor<!tf_type.resource<tensor<1x1x192x64xf32>>>) -> tensor<!tf_type.resource> loc(#loc0)
    %101 = "tf.Cast"(%arg102) {Truncate = false} : (tensor<!tf_type.resource<tensor<64xf32>>>) -> tensor<!tf_type.resource> loc(#loc0)
    %102 = "tf.Cast"(%arg103) {Truncate = false} : (tensor<!tf_type.resource<tensor<64xf32>>>) -> tensor<!tf_type.resource> loc(#loc0)
    %103 = "tf.Cast"(%arg104) {Truncate = false} : (tensor<!tf_type.resource<tensor<64xf32>>>) -> tensor<!tf_type.resource> loc(#loc0)
    %104 = "tf.Cast"(%arg105) {Truncate = false} : (tensor<!tf_type.resource<tensor<64xf32>>>) -> tensor<!tf_type.resource> loc(#loc0)
    %105 = "tf.Cast"(%arg106) {Truncate = false} : (tensor<!tf_type.resource<tensor<1x1x64x384xf32>>>) -> tensor<!tf_type.resource> loc(#loc0)
    %106 = "tf.Cast"(%arg107) {Truncate = false} : (tensor<!tf_type.resource<tensor<384xf32>>>) -> tensor<!tf_type.resource> loc(#loc0)
    %107 = "tf.Cast"(%arg108) {Truncate = false} : (tensor<!tf_type.resource<tensor<384xf32>>>) -> tensor<!tf_type.resource> loc(#loc0)
    %108 = "tf.Cast"(%arg109) {Truncate = false} : (tensor<!tf_type.resource<tensor<384xf32>>>) -> tensor<!tf_type.resource> loc(#loc0)
    %109 = "tf.Cast"(%arg110) {Truncate = false} : (tensor<!tf_type.resource<tensor<384xf32>>>) -> tensor<!tf_type.resource> loc(#loc0)
    %110 = "tf.Cast"(%arg111) {Truncate = false} : (tensor<!tf_type.resource<tensor<3x3x384x1xf32>>>) -> tensor<!tf_type.resource> loc(#loc0)
    %111 = "tf.Cast"(%arg112) {Truncate = false} : (tensor<!tf_type.resource<tensor<384xf32>>>) -> tensor<!tf_type.resource> loc(#loc0)
    %112 = "tf.Cast"(%arg113) {Truncate = false} : (tensor<!tf_type.resource<tensor<384xf32>>>) -> tensor<!tf_type.resource> loc(#loc0)
    %113 = "tf.Cast"(%arg114) {Truncate = false} : (tensor<!tf_type.resource<tensor<384xf32>>>) -> tensor<!tf_type.resource> loc(#loc0)
    %114 = "tf.Cast"(%arg115) {Truncate = false} : (tensor<!tf_type.resource<tensor<384xf32>>>) -> tensor<!tf_type.resource> loc(#loc0)
    %115 = "tf.Cast"(%arg116) {Truncate = false} : (tensor<!tf_type.resource<tensor<1x1x384x64xf32>>>) -> tensor<!tf_type.resource> loc(#loc0)
    %116 = "tf.Cast"(%arg117) {Truncate = false} : (tensor<!tf_type.resource<tensor<64xf32>>>) -> tensor<!tf_type.resource> loc(#loc0)
    %117 = "tf.Cast"(%arg118) {Truncate = false} : (tensor<!tf_type.resource<tensor<64xf32>>>) -> tensor<!tf_type.resource> loc(#loc0)
    %118 = "tf.Cast"(%arg119) {Truncate = false} : (tensor<!tf_type.resource<tensor<64xf32>>>) -> tensor<!tf_type.resource> loc(#loc0)
    %119 = "tf.Cast"(%arg120) {Truncate = false} : (tensor<!tf_type.resource<tensor<64xf32>>>) -> tensor<!tf_type.resource> loc(#loc0)
    %120 = "tf.Cast"(%arg121) {Truncate = false} : (tensor<!tf_type.resource<tensor<1x1x64x384xf32>>>) -> tensor<!tf_type.resource> loc(#loc0)
    %121 = "tf.Cast"(%arg122) {Truncate = false} : (tensor<!tf_type.resource<tensor<384xf32>>>) -> tensor<!tf_type.resource> loc(#loc0)
    %122 = "tf.Cast"(%arg123) {Truncate = false} : (tensor<!tf_type.resource<tensor<384xf32>>>) -> tensor<!tf_type.resource> loc(#loc0)
    %123 = "tf.Cast"(%arg124) {Truncate = false} : (tensor<!tf_type.resource<tensor<384xf32>>>) -> tensor<!tf_type.resource> loc(#loc0)
    %124 = "tf.Cast"(%arg125) {Truncate = false} : (tensor<!tf_type.resource<tensor<384xf32>>>) -> tensor<!tf_type.resource> loc(#loc0)
    %125 = "tf.Cast"(%arg126) {Truncate = false} : (tensor<!tf_type.resource<tensor<3x3x384x1xf32>>>) -> tensor<!tf_type.resource> loc(#loc0)
    %126 = "tf.Cast"(%arg127) {Truncate = false} : (tensor<!tf_type.resource<tensor<384xf32>>>) -> tensor<!tf_type.resource> loc(#loc0)
    %127 = "tf.Cast"(%arg128) {Truncate = false} : (tensor<!tf_type.resource<tensor<384xf32>>>) -> tensor<!tf_type.resource> loc(#loc0)
    %128 = "tf.Cast"(%arg129) {Truncate = false} : (tensor<!tf_type.resource<tensor<384xf32>>>) -> tensor<!tf_type.resource> loc(#loc0)
    %129 = "tf.Cast"(%arg130) {Truncate = false} : (tensor<!tf_type.resource<tensor<384xf32>>>) -> tensor<!tf_type.resource> loc(#loc0)
    %130 = "tf.Cast"(%arg131) {Truncate = false} : (tensor<!tf_type.resource<tensor<1x1x384x64xf32>>>) -> tensor<!tf_type.resource> loc(#loc0)
    %131 = "tf.Cast"(%arg132) {Truncate = false} : (tensor<!tf_type.resource<tensor<64xf32>>>) -> tensor<!tf_type.resource> loc(#loc0)
    %132 = "tf.Cast"(%arg133) {Truncate = false} : (tensor<!tf_type.resource<tensor<64xf32>>>) -> tensor<!tf_type.resource> loc(#loc0)
    %133 = "tf.Cast"(%arg134) {Truncate = false} : (tensor<!tf_type.resource<tensor<64xf32>>>) -> tensor<!tf_type.resource> loc(#loc0)
    %134 = "tf.Cast"(%arg135) {Truncate = false} : (tensor<!tf_type.resource<tensor<64xf32>>>) -> tensor<!tf_type.resource> loc(#loc0)
    %135 = "tf.Cast"(%arg136) {Truncate = false} : (tensor<!tf_type.resource<tensor<1x1x64x384xf32>>>) -> tensor<!tf_type.resource> loc(#loc0)
    %136 = "tf.Cast"(%arg137) {Truncate = false} : (tensor<!tf_type.resource<tensor<384xf32>>>) -> tensor<!tf_type.resource> loc(#loc0)
    %137 = "tf.Cast"(%arg138) {Truncate = false} : (tensor<!tf_type.resource<tensor<384xf32>>>) -> tensor<!tf_type.resource> loc(#loc0)
    %138 = "tf.Cast"(%arg139) {Truncate = false} : (tensor<!tf_type.resource<tensor<384xf32>>>) -> tensor<!tf_type.resource> loc(#loc0)
    %139 = "tf.Cast"(%arg140) {Truncate = false} : (tensor<!tf_type.resource<tensor<384xf32>>>) -> tensor<!tf_type.resource> loc(#loc0)
    %140 = "tf.Cast"(%arg141) {Truncate = false} : (tensor<!tf_type.resource<tensor<3x3x384x1xf32>>>) -> tensor<!tf_type.resource> loc(#loc0)
    %141 = "tf.Cast"(%arg142) {Truncate = false} : (tensor<!tf_type.resource<tensor<384xf32>>>) -> tensor<!tf_type.resource> loc(#loc0)
    %142 = "tf.Cast"(%arg143) {Truncate = false} : (tensor<!tf_type.resource<tensor<384xf32>>>) -> tensor<!tf_type.resource> loc(#loc0)
    %143 = "tf.Cast"(%arg144) {Truncate = false} : (tensor<!tf_type.resource<tensor<384xf32>>>) -> tensor<!tf_type.resource> loc(#loc0)
    %144 = "tf.Cast"(%arg145) {Truncate = false} : (tensor<!tf_type.resource<tensor<384xf32>>>) -> tensor<!tf_type.resource> loc(#loc0)
    %145 = "tf.Cast"(%arg146) {Truncate = false} : (tensor<!tf_type.resource<tensor<1x1x384x64xf32>>>) -> tensor<!tf_type.resource> loc(#loc0)
    %146 = "tf.Cast"(%arg147) {Truncate = false} : (tensor<!tf_type.resource<tensor<64xf32>>>) -> tensor<!tf_type.resource> loc(#loc0)
    %147 = "tf.Cast"(%arg148) {Truncate = false} : (tensor<!tf_type.resource<tensor<64xf32>>>) -> tensor<!tf_type.resource> loc(#loc0)
    %148 = "tf.Cast"(%arg149) {Truncate = false} : (tensor<!tf_type.resource<tensor<64xf32>>>) -> tensor<!tf_type.resource> loc(#loc0)
    %149 = "tf.Cast"(%arg150) {Truncate = false} : (tensor<!tf_type.resource<tensor<64xf32>>>) -> tensor<!tf_type.resource> loc(#loc0)
    %150 = "tf.Cast"(%arg151) {Truncate = false} : (tensor<!tf_type.resource<tensor<1x1x64x384xf32>>>) -> tensor<!tf_type.resource> loc(#loc0)
    %151 = "tf.Cast"(%arg152) {Truncate = false} : (tensor<!tf_type.resource<tensor<384xf32>>>) -> tensor<!tf_type.resource> loc(#loc0)
    %152 = "tf.Cast"(%arg153) {Truncate = false} : (tensor<!tf_type.resource<tensor<384xf32>>>) -> tensor<!tf_type.resource> loc(#loc0)
    %153 = "tf.Cast"(%arg154) {Truncate = false} : (tensor<!tf_type.resource<tensor<384xf32>>>) -> tensor<!tf_type.resource> loc(#loc0)
    %154 = "tf.Cast"(%arg155) {Truncate = false} : (tensor<!tf_type.resource<tensor<384xf32>>>) -> tensor<!tf_type.resource> loc(#loc0)
    %155 = "tf.Cast"(%arg156) {Truncate = false} : (tensor<!tf_type.resource<tensor<3x3x384x1xf32>>>) -> tensor<!tf_type.resource> loc(#loc0)
    %156 = "tf.Cast"(%arg157) {Truncate = false} : (tensor<!tf_type.resource<tensor<384xf32>>>) -> tensor<!tf_type.resource> loc(#loc0)
    %157 = "tf.Cast"(%arg158) {Truncate = false} : (tensor<!tf_type.resource<tensor<384xf32>>>) -> tensor<!tf_type.resource> loc(#loc0)
    %158 = "tf.Cast"(%arg159) {Truncate = false} : (tensor<!tf_type.resource<tensor<384xf32>>>) -> tensor<!tf_type.resource> loc(#loc0)
    %159 = "tf.Cast"(%arg160) {Truncate = false} : (tensor<!tf_type.resource<tensor<384xf32>>>) -> tensor<!tf_type.resource> loc(#loc0)
    %160 = "tf.Cast"(%arg161) {Truncate = false} : (tensor<!tf_type.resource<tensor<1x1x384x96xf32>>>) -> tensor<!tf_type.resource> loc(#loc0)
    %161 = "tf.Cast"(%arg162) {Truncate = false} : (tensor<!tf_type.resource<tensor<96xf32>>>) -> tensor<!tf_type.resource> loc(#loc0)
    %162 = "tf.Cast"(%arg163) {Truncate = false} : (tensor<!tf_type.resource<tensor<96xf32>>>) -> tensor<!tf_type.resource> loc(#loc0)
    %163 = "tf.Cast"(%arg164) {Truncate = false} : (tensor<!tf_type.resource<tensor<96xf32>>>) -> tensor<!tf_type.resource> loc(#loc0)
    %164 = "tf.Cast"(%arg165) {Truncate = false} : (tensor<!tf_type.resource<tensor<96xf32>>>) -> tensor<!tf_type.resource> loc(#loc0)
    %165 = "tf.Cast"(%arg166) {Truncate = false} : (tensor<!tf_type.resource<tensor<1x1x96x576xf32>>>) -> tensor<!tf_type.resource> loc(#loc0)
    %166 = "tf.Cast"(%arg167) {Truncate = false} : (tensor<!tf_type.resource<tensor<576xf32>>>) -> tensor<!tf_type.resource> loc(#loc0)
    %167 = "tf.Cast"(%arg168) {Truncate = false} : (tensor<!tf_type.resource<tensor<576xf32>>>) -> tensor<!tf_type.resource> loc(#loc0)
    %168 = "tf.Cast"(%arg169) {Truncate = false} : (tensor<!tf_type.resource<tensor<576xf32>>>) -> tensor<!tf_type.resource> loc(#loc0)
    %169 = "tf.Cast"(%arg170) {Truncate = false} : (tensor<!tf_type.resource<tensor<576xf32>>>) -> tensor<!tf_type.resource> loc(#loc0)
    %170 = "tf.Cast"(%arg171) {Truncate = false} : (tensor<!tf_type.resource<tensor<3x3x576x1xf32>>>) -> tensor<!tf_type.resource> loc(#loc0)
    %171 = "tf.Cast"(%arg172) {Truncate = false} : (tensor<!tf_type.resource<tensor<576xf32>>>) -> tensor<!tf_type.resource> loc(#loc0)
    %172 = "tf.Cast"(%arg173) {Truncate = false} : (tensor<!tf_type.resource<tensor<576xf32>>>) -> tensor<!tf_type.resource> loc(#loc0)
    %173 = "tf.Cast"(%arg174) {Truncate = false} : (tensor<!tf_type.resource<tensor<576xf32>>>) -> tensor<!tf_type.resource> loc(#loc0)
    %174 = "tf.Cast"(%arg175) {Truncate = false} : (tensor<!tf_type.resource<tensor<576xf32>>>) -> tensor<!tf_type.resource> loc(#loc0)
    %175 = "tf.Cast"(%arg176) {Truncate = false} : (tensor<!tf_type.resource<tensor<1x1x576x96xf32>>>) -> tensor<!tf_type.resource> loc(#loc0)
    %176 = "tf.Cast"(%arg177) {Truncate = false} : (tensor<!tf_type.resource<tensor<96xf32>>>) -> tensor<!tf_type.resource> loc(#loc0)
    %177 = "tf.Cast"(%arg178) {Truncate = false} : (tensor<!tf_type.resource<tensor<96xf32>>>) -> tensor<!tf_type.resource> loc(#loc0)
    %178 = "tf.Cast"(%arg179) {Truncate = false} : (tensor<!tf_type.resource<tensor<96xf32>>>) -> tensor<!tf_type.resource> loc(#loc0)
    %179 = "tf.Cast"(%arg180) {Truncate = false} : (tensor<!tf_type.resource<tensor<96xf32>>>) -> tensor<!tf_type.resource> loc(#loc0)
    %180 = "tf.Cast"(%arg181) {Truncate = false} : (tensor<!tf_type.resource<tensor<1x1x96x576xf32>>>) -> tensor<!tf_type.resource> loc(#loc0)
    %181 = "tf.Cast"(%arg182) {Truncate = false} : (tensor<!tf_type.resource<tensor<576xf32>>>) -> tensor<!tf_type.resource> loc(#loc0)
    %182 = "tf.Cast"(%arg183) {Truncate = false} : (tensor<!tf_type.resource<tensor<576xf32>>>) -> tensor<!tf_type.resource> loc(#loc0)
    %183 = "tf.Cast"(%arg184) {Truncate = false} : (tensor<!tf_type.resource<tensor<576xf32>>>) -> tensor<!tf_type.resource> loc(#loc0)
    %184 = "tf.Cast"(%arg185) {Truncate = false} : (tensor<!tf_type.resource<tensor<576xf32>>>) -> tensor<!tf_type.resource> loc(#loc0)
    %185 = "tf.Cast"(%arg186) {Truncate = false} : (tensor<!tf_type.resource<tensor<3x3x576x1xf32>>>) -> tensor<!tf_type.resource> loc(#loc0)
    %186 = "tf.Cast"(%arg187) {Truncate = false} : (tensor<!tf_type.resource<tensor<576xf32>>>) -> tensor<!tf_type.resource> loc(#loc0)
    %187 = "tf.Cast"(%arg188) {Truncate = false} : (tensor<!tf_type.resource<tensor<576xf32>>>) -> tensor<!tf_type.resource> loc(#loc0)
    %188 = "tf.Cast"(%arg189) {Truncate = false} : (tensor<!tf_type.resource<tensor<576xf32>>>) -> tensor<!tf_type.resource> loc(#loc0)
    %189 = "tf.Cast"(%arg190) {Truncate = false} : (tensor<!tf_type.resource<tensor<576xf32>>>) -> tensor<!tf_type.resource> loc(#loc0)
    %190 = "tf.Cast"(%arg191) {Truncate = false} : (tensor<!tf_type.resource<tensor<1x1x576x96xf32>>>) -> tensor<!tf_type.resource> loc(#loc0)
    %191 = "tf.Cast"(%arg192) {Truncate = false} : (tensor<!tf_type.resource<tensor<96xf32>>>) -> tensor<!tf_type.resource> loc(#loc0)
    %192 = "tf.Cast"(%arg193) {Truncate = false} : (tensor<!tf_type.resource<tensor<96xf32>>>) -> tensor<!tf_type.resource> loc(#loc0)
    %193 = "tf.Cast"(%arg194) {Truncate = false} : (tensor<!tf_type.resource<tensor<96xf32>>>) -> tensor<!tf_type.resource> loc(#loc0)
    %194 = "tf.Cast"(%arg195) {Truncate = false} : (tensor<!tf_type.resource<tensor<96xf32>>>) -> tensor<!tf_type.resource> loc(#loc0)
    %195 = "tf.Cast"(%arg196) {Truncate = false} : (tensor<!tf_type.resource<tensor<1x1x96x576xf32>>>) -> tensor<!tf_type.resource> loc(#loc0)
    %196 = "tf.Cast"(%arg197) {Truncate = false} : (tensor<!tf_type.resource<tensor<576xf32>>>) -> tensor<!tf_type.resource> loc(#loc0)
    %197 = "tf.Cast"(%arg198) {Truncate = false} : (tensor<!tf_type.resource<tensor<576xf32>>>) -> tensor<!tf_type.resource> loc(#loc0)
    %198 = "tf.Cast"(%arg199) {Truncate = false} : (tensor<!tf_type.resource<tensor<576xf32>>>) -> tensor<!tf_type.resource> loc(#loc0)
    %199 = "tf.Cast"(%arg200) {Truncate = false} : (tensor<!tf_type.resource<tensor<576xf32>>>) -> tensor<!tf_type.resource> loc(#loc0)
    %200 = "tf.Cast"(%arg201) {Truncate = false} : (tensor<!tf_type.resource<tensor<3x3x576x1xf32>>>) -> tensor<!tf_type.resource> loc(#loc0)
    %201 = "tf.Cast"(%arg202) {Truncate = false} : (tensor<!tf_type.resource<tensor<576xf32>>>) -> tensor<!tf_type.resource> loc(#loc0)
    %202 = "tf.Cast"(%arg203) {Truncate = false} : (tensor<!tf_type.resource<tensor<576xf32>>>) -> tensor<!tf_type.resource> loc(#loc0)
    %203 = "tf.Cast"(%arg204) {Truncate = false} : (tensor<!tf_type.resource<tensor<576xf32>>>) -> tensor<!tf_type.resource> loc(#loc0)
    %204 = "tf.Cast"(%arg205) {Truncate = false} : (tensor<!tf_type.resource<tensor<576xf32>>>) -> tensor<!tf_type.resource> loc(#loc0)
    %205 = "tf.Cast"(%arg206) {Truncate = false} : (tensor<!tf_type.resource<tensor<1x1x576x160xf32>>>) -> tensor<!tf_type.resource> loc(#loc0)
    %206 = "tf.Cast"(%arg207) {Truncate = false} : (tensor<!tf_type.resource<tensor<160xf32>>>) -> tensor<!tf_type.resource> loc(#loc0)
    %207 = "tf.Cast"(%arg208) {Truncate = false} : (tensor<!tf_type.resource<tensor<160xf32>>>) -> tensor<!tf_type.resource> loc(#loc0)
    %208 = "tf.Cast"(%arg209) {Truncate = false} : (tensor<!tf_type.resource<tensor<160xf32>>>) -> tensor<!tf_type.resource> loc(#loc0)
    %209 = "tf.Cast"(%arg210) {Truncate = false} : (tensor<!tf_type.resource<tensor<160xf32>>>) -> tensor<!tf_type.resource> loc(#loc0)
    %210 = "tf.Cast"(%arg211) {Truncate = false} : (tensor<!tf_type.resource<tensor<1x1x160x960xf32>>>) -> tensor<!tf_type.resource> loc(#loc0)
    %211 = "tf.Cast"(%arg212) {Truncate = false} : (tensor<!tf_type.resource<tensor<960xf32>>>) -> tensor<!tf_type.resource> loc(#loc0)
    %212 = "tf.Cast"(%arg213) {Truncate = false} : (tensor<!tf_type.resource<tensor<960xf32>>>) -> tensor<!tf_type.resource> loc(#loc0)
    %213 = "tf.Cast"(%arg214) {Truncate = false} : (tensor<!tf_type.resource<tensor<960xf32>>>) -> tensor<!tf_type.resource> loc(#loc0)
    %214 = "tf.Cast"(%arg215) {Truncate = false} : (tensor<!tf_type.resource<tensor<960xf32>>>) -> tensor<!tf_type.resource> loc(#loc0)
    %215 = "tf.Cast"(%arg216) {Truncate = false} : (tensor<!tf_type.resource<tensor<3x3x960x1xf32>>>) -> tensor<!tf_type.resource> loc(#loc0)
    %216 = "tf.Cast"(%arg217) {Truncate = false} : (tensor<!tf_type.resource<tensor<960xf32>>>) -> tensor<!tf_type.resource> loc(#loc0)
    %217 = "tf.Cast"(%arg218) {Truncate = false} : (tensor<!tf_type.resource<tensor<960xf32>>>) -> tensor<!tf_type.resource> loc(#loc0)
    %218 = "tf.Cast"(%arg219) {Truncate = false} : (tensor<!tf_type.resource<tensor<960xf32>>>) -> tensor<!tf_type.resource> loc(#loc0)
    %219 = "tf.Cast"(%arg220) {Truncate = false} : (tensor<!tf_type.resource<tensor<960xf32>>>) -> tensor<!tf_type.resource> loc(#loc0)
    %220 = "tf.Cast"(%arg221) {Truncate = false} : (tensor<!tf_type.resource<tensor<1x1x960x160xf32>>>) -> tensor<!tf_type.resource> loc(#loc0)
    %221 = "tf.Cast"(%arg222) {Truncate = false} : (tensor<!tf_type.resource<tensor<160xf32>>>) -> tensor<!tf_type.resource> loc(#loc0)
    %222 = "tf.Cast"(%arg223) {Truncate = false} : (tensor<!tf_type.resource<tensor<160xf32>>>) -> tensor<!tf_type.resource> loc(#loc0)
    %223 = "tf.Cast"(%arg224) {Truncate = false} : (tensor<!tf_type.resource<tensor<160xf32>>>) -> tensor<!tf_type.resource> loc(#loc0)
    %224 = "tf.Cast"(%arg225) {Truncate = false} : (tensor<!tf_type.resource<tensor<160xf32>>>) -> tensor<!tf_type.resource> loc(#loc0)
    %225 = "tf.Cast"(%arg226) {Truncate = false} : (tensor<!tf_type.resource<tensor<1x1x160x960xf32>>>) -> tensor<!tf_type.resource> loc(#loc0)
    %226 = "tf.Cast"(%arg227) {Truncate = false} : (tensor<!tf_type.resource<tensor<960xf32>>>) -> tensor<!tf_type.resource> loc(#loc0)
    %227 = "tf.Cast"(%arg228) {Truncate = false} : (tensor<!tf_type.resource<tensor<960xf32>>>) -> tensor<!tf_type.resource> loc(#loc0)
    %228 = "tf.Cast"(%arg229) {Truncate = false} : (tensor<!tf_type.resource<tensor<960xf32>>>) -> tensor<!tf_type.resource> loc(#loc0)
    %229 = "tf.Cast"(%arg230) {Truncate = false} : (tensor<!tf_type.resource<tensor<960xf32>>>) -> tensor<!tf_type.resource> loc(#loc0)
    %230 = "tf.Cast"(%arg231) {Truncate = false} : (tensor<!tf_type.resource<tensor<3x3x960x1xf32>>>) -> tensor<!tf_type.resource> loc(#loc0)
    %231 = "tf.Cast"(%arg232) {Truncate = false} : (tensor<!tf_type.resource<tensor<960xf32>>>) -> tensor<!tf_type.resource> loc(#loc0)
    %232 = "tf.Cast"(%arg233) {Truncate = false} : (tensor<!tf_type.resource<tensor<960xf32>>>) -> tensor<!tf_type.resource> loc(#loc0)
    %233 = "tf.Cast"(%arg234) {Truncate = false} : (tensor<!tf_type.resource<tensor<960xf32>>>) -> tensor<!tf_type.resource> loc(#loc0)
    %234 = "tf.Cast"(%arg235) {Truncate = false} : (tensor<!tf_type.resource<tensor<960xf32>>>) -> tensor<!tf_type.resource> loc(#loc0)
    %235 = "tf.Cast"(%arg236) {Truncate = false} : (tensor<!tf_type.resource<tensor<1x1x960x160xf32>>>) -> tensor<!tf_type.resource> loc(#loc0)
    %236 = "tf.Cast"(%arg237) {Truncate = false} : (tensor<!tf_type.resource<tensor<160xf32>>>) -> tensor<!tf_type.resource> loc(#loc0)
    %237 = "tf.Cast"(%arg238) {Truncate = false} : (tensor<!tf_type.resource<tensor<160xf32>>>) -> tensor<!tf_type.resource> loc(#loc0)
    %238 = "tf.Cast"(%arg239) {Truncate = false} : (tensor<!tf_type.resource<tensor<160xf32>>>) -> tensor<!tf_type.resource> loc(#loc0)
    %239 = "tf.Cast"(%arg240) {Truncate = false} : (tensor<!tf_type.resource<tensor<160xf32>>>) -> tensor<!tf_type.resource> loc(#loc0)
    %240 = "tf.Cast"(%arg241) {Truncate = false} : (tensor<!tf_type.resource<tensor<1x1x160x960xf32>>>) -> tensor<!tf_type.resource> loc(#loc0)
    %241 = "tf.Cast"(%arg242) {Truncate = false} : (tensor<!tf_type.resource<tensor<960xf32>>>) -> tensor<!tf_type.resource> loc(#loc0)
    %242 = "tf.Cast"(%arg243) {Truncate = false} : (tensor<!tf_type.resource<tensor<960xf32>>>) -> tensor<!tf_type.resource> loc(#loc0)
    %243 = "tf.Cast"(%arg244) {Truncate = false} : (tensor<!tf_type.resource<tensor<960xf32>>>) -> tensor<!tf_type.resource> loc(#loc0)
    %244 = "tf.Cast"(%arg245) {Truncate = false} : (tensor<!tf_type.resource<tensor<960xf32>>>) -> tensor<!tf_type.resource> loc(#loc0)
    %245 = "tf.Cast"(%arg246) {Truncate = false} : (tensor<!tf_type.resource<tensor<3x3x960x1xf32>>>) -> tensor<!tf_type.resource> loc(#loc0)
    %246 = "tf.Cast"(%arg247) {Truncate = false} : (tensor<!tf_type.resource<tensor<960xf32>>>) -> tensor<!tf_type.resource> loc(#loc0)
    %247 = "tf.Cast"(%arg248) {Truncate = false} : (tensor<!tf_type.resource<tensor<960xf32>>>) -> tensor<!tf_type.resource> loc(#loc0)
    %248 = "tf.Cast"(%arg249) {Truncate = false} : (tensor<!tf_type.resource<tensor<960xf32>>>) -> tensor<!tf_type.resource> loc(#loc0)
    %249 = "tf.Cast"(%arg250) {Truncate = false} : (tensor<!tf_type.resource<tensor<960xf32>>>) -> tensor<!tf_type.resource> loc(#loc0)
    %250 = "tf.Cast"(%arg251) {Truncate = false} : (tensor<!tf_type.resource<tensor<1x1x960x320xf32>>>) -> tensor<!tf_type.resource> loc(#loc0)
    %251 = "tf.Cast"(%arg252) {Truncate = false} : (tensor<!tf_type.resource<tensor<320xf32>>>) -> tensor<!tf_type.resource> loc(#loc0)
    %252 = "tf.Cast"(%arg253) {Truncate = false} : (tensor<!tf_type.resource<tensor<320xf32>>>) -> tensor<!tf_type.resource> loc(#loc0)
    %253 = "tf.Cast"(%arg254) {Truncate = false} : (tensor<!tf_type.resource<tensor<320xf32>>>) -> tensor<!tf_type.resource> loc(#loc0)
    %254 = "tf.Cast"(%arg255) {Truncate = false} : (tensor<!tf_type.resource<tensor<320xf32>>>) -> tensor<!tf_type.resource> loc(#loc0)
    %255 = "tf.Cast"(%arg256) {Truncate = false} : (tensor<!tf_type.resource<tensor<1x1x320x1280xf32>>>) -> tensor<!tf_type.resource> loc(#loc0)
    %256 = "tf.Cast"(%arg257) {Truncate = false} : (tensor<!tf_type.resource<tensor<1280xf32>>>) -> tensor<!tf_type.resource> loc(#loc0)
    %257 = "tf.Cast"(%arg258) {Truncate = false} : (tensor<!tf_type.resource<tensor<1280xf32>>>) -> tensor<!tf_type.resource> loc(#loc0)
    %258 = "tf.Cast"(%arg259) {Truncate = false} : (tensor<!tf_type.resource<tensor<1280xf32>>>) -> tensor<!tf_type.resource> loc(#loc0)
    %259 = "tf.Cast"(%arg260) {Truncate = false} : (tensor<!tf_type.resource<tensor<1280xf32>>>) -> tensor<!tf_type.resource> loc(#loc0)
    %260 = "tf.Cast"(%arg261) {Truncate = false} : (tensor<!tf_type.resource<tensor<1280x1000xf32>>>) -> tensor<!tf_type.resource> loc(#loc0)
    %261 = "tf.Cast"(%arg262) {Truncate = false} : (tensor<!tf_type.resource<tensor<1000xf32>>>) -> tensor<!tf_type.resource> loc(#loc0)
    %262 = tf_executor.graph {
      %outputs, %control = tf_executor.island wraps "tf.Const"() {device = "", value = dense<[3, 3, 384, 1]> : tensor<4xi32>} : () -> tensor<4xi32> loc(#loc1)
      %outputs_0, %control_1 = tf_executor.island wraps "tf.Const"() {device = "", value = dense<1> : tensor<2xi32>} : () -> tensor<2xi32> loc(#loc2)
      %outputs_2, %control_3 = tf_executor.island wraps "tf.ReadVariableOp"(%159) {device = ""} : (tensor<!tf_type.resource>) -> tensor<384xf32> loc(#loc3)
      %outputs_4, %control_5 = tf_executor.island wraps "tf.ReadVariableOp"(%158) {device = ""} : (tensor<!tf_type.resource>) -> tensor<384xf32> loc(#loc4)
      %outputs_6, %control_7 = tf_executor.island wraps "tf.ReadVariableOp"(%157) {device = ""} : (tensor<!tf_type.resource>) -> tensor<384xf32> loc(#loc5)
      %outputs_8, %control_9 = tf_executor.island wraps "tf.ReadVariableOp"(%156) {device = ""} : (tensor<!tf_type.resource>) -> tensor<384xf32> loc(#loc6)
      %outputs_10, %control_11 = tf_executor.island wraps "tf.ReadVariableOp"(%155) {device = ""} : (tensor<!tf_type.resource>) -> tensor<3x3x384x1xf32> loc(#loc7)
      %outputs_12, %control_13 = tf_executor.island wraps "tf.ReadVariableOp"(%154) {device = ""} : (tensor<!tf_type.resource>) -> tensor<384xf32> loc(#loc8)
      %outputs_14, %control_15 = tf_executor.island wraps "tf.ReadVariableOp"(%153) {device = ""} : (tensor<!tf_type.resource>) -> tensor<384xf32> loc(#loc9)
      %outputs_16, %control_17 = tf_executor.island wraps "tf.ReadVariableOp"(%152) {device = ""} : (tensor<!tf_type.resource>) -> tensor<384xf32> loc(#loc10)
      %outputs_18, %control_19 = tf_executor.island wraps "tf.ReadVariableOp"(%151) {device = ""} : (tensor<!tf_type.resource>) -> tensor<384xf32> loc(#loc11)
      %outputs_20, %control_21 = tf_executor.island wraps "tf.ReadVariableOp"(%150) {device = ""} : (tensor<!tf_type.resource>) -> tensor<1x1x64x384xf32> loc(#loc12)
      %outputs_22, %control_23 = tf_executor.island wraps "tf.ReadVariableOp"(%164) {device = ""} : (tensor<!tf_type.resource>) -> tensor<96xf32> loc(#loc13)
      %outputs_24, %control_25 = tf_executor.island wraps "tf.ReadVariableOp"(%163) {device = ""} : (tensor<!tf_type.resource>) -> tensor<96xf32> loc(#loc14)
      %outputs_26, %control_27 = tf_executor.island wraps "tf.ReadVariableOp"(%162) {device = ""} : (tensor<!tf_type.resource>) -> tensor<96xf32> loc(#loc15)
      %outputs_28, %control_29 = tf_executor.island wraps "tf.ReadVariableOp"(%161) {device = ""} : (tensor<!tf_type.resource>) -> tensor<96xf32> loc(#loc16)
      %outputs_30, %control_31 = tf_executor.island wraps "tf.ReadVariableOp"(%160) {device = ""} : (tensor<!tf_type.resource>) -> tensor<1x1x384x96xf32> loc(#loc17)
      %outputs_32, %control_33 = tf_executor.island wraps "tf.Const"() {device = "", value = dense<[3, 3, 576, 1]> : tensor<4xi32>} : () -> tensor<4xi32> loc(#loc18)
      %outputs_34, %control_35 = tf_executor.island wraps "tf.Const"() {device = "", value = dense<1> : tensor<2xi32>} : () -> tensor<2xi32> loc(#loc19)
      %outputs_36, %control_37 = tf_executor.island wraps "tf.ReadVariableOp"(%174) {device = ""} : (tensor<!tf_type.resource>) -> tensor<576xf32> loc(#loc20)
      %outputs_38, %control_39 = tf_executor.island wraps "tf.ReadVariableOp"(%173) {device = ""} : (tensor<!tf_type.resource>) -> tensor<576xf32> loc(#loc21)
      %outputs_40, %control_41 = tf_executor.island wraps "tf.ReadVariableOp"(%172) {device = ""} : (tensor<!tf_type.resource>) -> tensor<576xf32> loc(#loc22)
      %outputs_42, %control_43 = tf_executor.island wraps "tf.ReadVariableOp"(%171) {device = ""} : (tensor<!tf_type.resource>) -> tensor<576xf32> loc(#loc23)
      %outputs_44, %control_45 = tf_executor.island wraps "tf.ReadVariableOp"(%170) {device = ""} : (tensor<!tf_type.resource>) -> tensor<3x3x576x1xf32> loc(#loc24)
      %outputs_46, %control_47 = tf_executor.island wraps "tf.ReadVariableOp"(%169) {device = ""} : (tensor<!tf_type.resource>) -> tensor<576xf32> loc(#loc25)
      %outputs_48, %control_49 = tf_executor.island wraps "tf.ReadVariableOp"(%168) {device = ""} : (tensor<!tf_type.resource>) -> tensor<576xf32> loc(#loc26)
      %outputs_50, %control_51 = tf_executor.island wraps "tf.ReadVariableOp"(%167) {device = ""} : (tensor<!tf_type.resource>) -> tensor<576xf32> loc(#loc27)
      %outputs_52, %control_53 = tf_executor.island wraps "tf.ReadVariableOp"(%166) {device = ""} : (tensor<!tf_type.resource>) -> tensor<576xf32> loc(#loc28)
      %outputs_54, %control_55 = tf_executor.island wraps "tf.ReadVariableOp"(%165) {device = ""} : (tensor<!tf_type.resource>) -> tensor<1x1x96x576xf32> loc(#loc29)
      %outputs_56, %control_57 = tf_executor.island wraps "tf.ReadVariableOp"(%179) {device = ""} : (tensor<!tf_type.resource>) -> tensor<96xf32> loc(#loc30)
      %outputs_58, %control_59 = tf_executor.island wraps "tf.ReadVariableOp"(%178) {device = ""} : (tensor<!tf_type.resource>) -> tensor<96xf32> loc(#loc31)
      %outputs_60, %control_61 = tf_executor.island wraps "tf.ReadVariableOp"(%177) {device = ""} : (tensor<!tf_type.resource>) -> tensor<96xf32> loc(#loc32)
      %outputs_62, %control_63 = tf_executor.island wraps "tf.ReadVariableOp"(%176) {device = ""} : (tensor<!tf_type.resource>) -> tensor<96xf32> loc(#loc33)
      %outputs_64, %control_65 = tf_executor.island wraps "tf.ReadVariableOp"(%175) {device = ""} : (tensor<!tf_type.resource>) -> tensor<1x1x576x96xf32> loc(#loc34)
      %outputs_66, %control_67 = tf_executor.island wraps "tf.Const"() {device = "", value = dense<[3, 3, 576, 1]> : tensor<4xi32>} : () -> tensor<4xi32> loc(#loc35)
      %outputs_68, %control_69 = tf_executor.island wraps "tf.Const"() {device = "", value = dense<1> : tensor<2xi32>} : () -> tensor<2xi32> loc(#loc36)
      %outputs_70, %control_71 = tf_executor.island wraps "tf.ReadVariableOp"(%189) {device = ""} : (tensor<!tf_type.resource>) -> tensor<576xf32> loc(#loc37)
      %outputs_72, %control_73 = tf_executor.island wraps "tf.ReadVariableOp"(%188) {device = ""} : (tensor<!tf_type.resource>) -> tensor<576xf32> loc(#loc38)
      %outputs_74, %control_75 = tf_executor.island wraps "tf.ReadVariableOp"(%187) {device = ""} : (tensor<!tf_type.resource>) -> tensor<576xf32> loc(#loc39)
      %outputs_76, %control_77 = tf_executor.island wraps "tf.ReadVariableOp"(%186) {device = ""} : (tensor<!tf_type.resource>) -> tensor<576xf32> loc(#loc40)
      %outputs_78, %control_79 = tf_executor.island wraps "tf.ReadVariableOp"(%185) {device = ""} : (tensor<!tf_type.resource>) -> tensor<3x3x576x1xf32> loc(#loc41)
      %outputs_80, %control_81 = tf_executor.island wraps "tf.ReadVariableOp"(%184) {device = ""} : (tensor<!tf_type.resource>) -> tensor<576xf32> loc(#loc42)
      %outputs_82, %control_83 = tf_executor.island wraps "tf.ReadVariableOp"(%183) {device = ""} : (tensor<!tf_type.resource>) -> tensor<576xf32> loc(#loc43)
      %outputs_84, %control_85 = tf_executor.island wraps "tf.ReadVariableOp"(%182) {device = ""} : (tensor<!tf_type.resource>) -> tensor<576xf32> loc(#loc44)
      %outputs_86, %control_87 = tf_executor.island wraps "tf.ReadVariableOp"(%181) {device = ""} : (tensor<!tf_type.resource>) -> tensor<576xf32> loc(#loc45)
      %outputs_88, %control_89 = tf_executor.island wraps "tf.ReadVariableOp"(%180) {device = ""} : (tensor<!tf_type.resource>) -> tensor<1x1x96x576xf32> loc(#loc46)
      %outputs_90, %control_91 = tf_executor.island wraps "tf.ReadVariableOp"(%194) {device = ""} : (tensor<!tf_type.resource>) -> tensor<96xf32> loc(#loc47)
      %outputs_92, %control_93 = tf_executor.island wraps "tf.ReadVariableOp"(%193) {device = ""} : (tensor<!tf_type.resource>) -> tensor<96xf32> loc(#loc48)
      %outputs_94, %control_95 = tf_executor.island wraps "tf.ReadVariableOp"(%192) {device = ""} : (tensor<!tf_type.resource>) -> tensor<96xf32> loc(#loc49)
      %outputs_96, %control_97 = tf_executor.island wraps "tf.ReadVariableOp"(%191) {device = ""} : (tensor<!tf_type.resource>) -> tensor<96xf32> loc(#loc50)
      %outputs_98, %control_99 = tf_executor.island wraps "tf.ReadVariableOp"(%190) {device = ""} : (tensor<!tf_type.resource>) -> tensor<1x1x576x96xf32> loc(#loc51)
      %outputs_100, %control_101 = tf_executor.island wraps "tf.Const"() {device = "", value = dense<[3, 3, 576, 1]> : tensor<4xi32>} : () -> tensor<4xi32> loc(#loc52)
      %outputs_102, %control_103 = tf_executor.island wraps "tf.Const"() {device = "", value = dense<1> : tensor<2xi32>} : () -> tensor<2xi32> loc(#loc53)
      %outputs_104, %control_105 = tf_executor.island wraps "tf.ReadVariableOp"(%204) {device = ""} : (tensor<!tf_type.resource>) -> tensor<576xf32> loc(#loc54)
      %outputs_106, %control_107 = tf_executor.island wraps "tf.ReadVariableOp"(%203) {device = ""} : (tensor<!tf_type.resource>) -> tensor<576xf32> loc(#loc55)
      %outputs_108, %control_109 = tf_executor.island wraps "tf.ReadVariableOp"(%202) {device = ""} : (tensor<!tf_type.resource>) -> tensor<576xf32> loc(#loc56)
      %outputs_110, %control_111 = tf_executor.island wraps "tf.ReadVariableOp"(%201) {device = ""} : (tensor<!tf_type.resource>) -> tensor<576xf32> loc(#loc57)
      %outputs_112, %control_113 = tf_executor.island wraps "tf.ReadVariableOp"(%200) {device = ""} : (tensor<!tf_type.resource>) -> tensor<3x3x576x1xf32> loc(#loc58)
      %outputs_114, %control_115 = tf_executor.island wraps "tf.ReadVariableOp"(%199) {device = ""} : (tensor<!tf_type.resource>) -> tensor<576xf32> loc(#loc59)
      %outputs_116, %control_117 = tf_executor.island wraps "tf.ReadVariableOp"(%198) {device = ""} : (tensor<!tf_type.resource>) -> tensor<576xf32> loc(#loc60)
      %outputs_118, %control_119 = tf_executor.island wraps "tf.ReadVariableOp"(%197) {device = ""} : (tensor<!tf_type.resource>) -> tensor<576xf32> loc(#loc61)
      %outputs_120, %control_121 = tf_executor.island wraps "tf.ReadVariableOp"(%196) {device = ""} : (tensor<!tf_type.resource>) -> tensor<576xf32> loc(#loc62)
      %outputs_122, %control_123 = tf_executor.island wraps "tf.ReadVariableOp"(%195) {device = ""} : (tensor<!tf_type.resource>) -> tensor<1x1x96x576xf32> loc(#loc63)
      %outputs_124, %control_125 = tf_executor.island wraps "tf.Const"() {device = "", value = dense<[[0, 0], [0, 1], [0, 1], [0, 0]]> : tensor<4x2xi32>} : () -> tensor<4x2xi32> loc(#loc64)
      %outputs_126, %control_127 = tf_executor.island wraps "tf.ReadVariableOp"(%209) {device = ""} : (tensor<!tf_type.resource>) -> tensor<160xf32> loc(#loc65)
      %outputs_128, %control_129 = tf_executor.island wraps "tf.ReadVariableOp"(%208) {device = ""} : (tensor<!tf_type.resource>) -> tensor<160xf32> loc(#loc66)
      %outputs_130, %control_131 = tf_executor.island wraps "tf.ReadVariableOp"(%207) {device = ""} : (tensor<!tf_type.resource>) -> tensor<160xf32> loc(#loc67)
…
#loc5195 = loc(fused["ReadVariableOp:", "block_9_expand_BN/FusedBatchNormV3/ReadVariableOp_1@__inference_mobilenetv2_1.00_224_layer_call_and_return_conditional_losses_18312"])
#loc5196 = loc(fused["ReadVariableOp:", "block_9_expand_BN/FusedBatchNormV3/ReadVariableOp@__inference_mobilenetv2_1.00_224_layer_call_and_return_conditional_losses_18312"])
#loc5197 = loc(fused["ReadVariableOp:", "block_9_expand_BN/ReadVariableOp_1@__inference_mobilenetv2_1.00_224_layer_call_and_return_conditional_losses_18312"])
#loc5198 = loc(fused["ReadVariableOp:", "block_9_expand_BN/ReadVariableOp@__inference_mobilenetv2_1.00_224_layer_call_and_return_conditional_losses_18312"])
#loc5199 = loc(fused["ReadVariableOp:", "block_9_expand/Conv2D/ReadVariableOp@__inference_mobilenetv2_1.00_224_layer_call_and_return_conditional_losses_18312"])
#loc5200 = loc(fused["ReadVariableOp:", "block_9_project_BN/FusedBatchNormV3/ReadVariableOp_1@__inference_mobilenetv2_1.00_224_layer_call_and_return_conditional_losses_18312"])
#loc5201 = loc(fused["ReadVariableOp:", "block_9_project_BN/FusedBatchNormV3/ReadVariableOp@__inference_mobilenetv2_1.00_224_layer_call_and_return_conditional_losses_18312"])
#loc5202 = loc(fused["ReadVariableOp:", "block_9_project_BN/ReadVariableOp_1@__inference_mobilenetv2_1.00_224_layer_call_and_return_conditional_losses_18312"])
#loc5203 = loc(fused["ReadVariableOp:", "block_9_project_BN/ReadVariableOp@__inference_mobilenetv2_1.00_224_layer_call_and_return_conditional_losses_18312"])
#loc5204 = loc(fused["ReadVariableOp:", "block_9_project/Conv2D/ReadVariableOp@__inference_mobilenetv2_1.00_224_layer_call_and_return_conditional_losses_18312"])
#loc5205 = loc(fused["ReadVariableOp:", "bn_Conv1/FusedBatchNormV3/ReadVariableOp_1@__inference_mobilenetv2_1.00_224_layer_call_and_return_conditional_losses_18312"])
#loc5206 = loc(fused["ReadVariableOp:", "bn_Conv1/FusedBatchNormV3/ReadVariableOp@__inference_mobilenetv2_1.00_224_layer_call_and_return_conditional_losses_18312"])
#loc5207 = loc(fused["ReadVariableOp:", "bn_Conv1/ReadVariableOp_1@__inference_mobilenetv2_1.00_224_layer_call_and_return_conditional_losses_18312"])
#loc5208 = loc(fused["ReadVariableOp:", "bn_Conv1/ReadVariableOp@__inference_mobilenetv2_1.00_224_layer_call_and_return_conditional_losses_18312"])
#loc5209 = loc(fused["ReadVariableOp:", "Conv1/Conv2D/ReadVariableOp@__inference_mobilenetv2_1.00_224_layer_call_and_return_conditional_losses_18312"])
#loc5210 = loc(fused["ReadVariableOp:", "Conv_1_bn/FusedBatchNormV3/ReadVariableOp_1@__inference_mobilenetv2_1.00_224_layer_call_and_return_conditional_losses_18312"])
#loc5211 = loc(fused["ReadVariableOp:", "Conv_1_bn/FusedBatchNormV3/ReadVariableOp@__inference_mobilenetv2_1.00_224_layer_call_and_return_conditional_losses_18312"])
#loc5212 = loc(fused["ReadVariableOp:", "Conv_1_bn/ReadVariableOp_1@__inference_mobilenetv2_1.00_224_layer_call_and_return_conditional_losses_18312"])
#loc5213 = loc(fused["ReadVariableOp:", "Conv_1_bn/ReadVariableOp@__inference_mobilenetv2_1.00_224_layer_call_and_return_conditional_losses_18312"])
#loc5214 = loc(fused["ReadVariableOp:", "Conv_1/Conv2D/ReadVariableOp@__inference_mobilenetv2_1.00_224_layer_call_and_return_conditional_losses_18312"])
#loc5215 = loc(fused["Const:", "expanded_conv_depthwise/depthwise/Shape@__inference_mobilenetv2_1.00_224_layer_call_and_return_conditional_losses_18312"])
#loc5216 = loc(fused["Const:", "expanded_conv_depthwise/depthwise/dilation_rate@__inference_mobilenetv2_1.00_224_layer_call_and_return_conditional_losses_18312"])
#loc5217 = loc(fused["ReadVariableOp:", "expanded_conv_depthwise_BN/FusedBatchNormV3/ReadVariableOp_1@__inference_mobilenetv2_1.00_224_layer_call_and_return_conditional_losses_18312"])
#loc5218 = loc(fused["ReadVariableOp:", "expanded_conv_depthwise_BN/FusedBatchNormV3/ReadVariableOp@__inference_mobilenetv2_1.00_224_layer_call_and_return_conditional_losses_18312"])
#loc5219 = loc(fused["ReadVariableOp:", "expanded_conv_depthwise_BN/ReadVariableOp_1@__inference_mobilenetv2_1.00_224_layer_call_and_return_conditional_losses_18312"])
#loc5220 = loc(fused["ReadVariableOp:", "expanded_conv_depthwise_BN/ReadVariableOp@__inference_mobilenetv2_1.00_224_layer_call_and_return_conditional_losses_18312"])
#loc5221 = loc(fused["ReadVariableOp:", "expanded_conv_depthwise/depthwise/ReadVariableOp@__inference_mobilenetv2_1.00_224_layer_call_and_return_conditional_losses_18312"])
#loc5222 = loc(fused["ReadVariableOp:", "expanded_conv_project_BN/FusedBatchNormV3/ReadVariableOp_1@__inference_mobilenetv2_1.00_224_layer_call_and_return_conditional_losses_18312"])
#loc5223 = loc(fused["ReadVariableOp:", "expanded_conv_project_BN/FusedBatchNormV3/ReadVariableOp@__inference_mobilenetv2_1.00_224_layer_call_and_return_conditional_losses_18312"])
#loc5224 = loc(fused["ReadVariableOp:", "expanded_conv_project_BN/ReadVariableOp_1@__inference_mobilenetv2_1.00_224_layer_call_and_return_conditional_losses_18312"])
#loc5225 = loc(fused["ReadVariableOp:", "expanded_conv_project_BN/ReadVariableOp@__inference_mobilenetv2_1.00_224_layer_call_and_return_conditional_losses_18312"])
#loc5226 = loc(fused["ReadVariableOp:", "expanded_conv_project/Conv2D/ReadVariableOp@__inference_mobilenetv2_1.00_224_layer_call_and_return_conditional_losses_18312"])
#loc5227 = loc(fused["Const:", "global_average_pooling2d/Mean/reduction_indices@__inference_mobilenetv2_1.00_224_layer_call_and_return_conditional_losses_18312"])
#loc5228 = loc(fused["Conv2D:", "Conv1/Conv2D@__inference_mobilenetv2_1.00_224_layer_call_and_return_conditional_losses_18312"])
#loc5229 = loc(fused["FusedBatchNormV3:", "bn_Conv1/FusedBatchNormV3@__inference_mobilenetv2_1.00_224_layer_call_and_return_conditional_losses_18312"])
#loc5230 = loc(fused["Relu6:", "Conv1_relu/Relu6@__inference_mobilenetv2_1.00_224_layer_call_and_return_conditional_losses_18312"])
#loc5231 = loc(fused["DepthwiseConv2dNative:", "expanded_conv_depthwise/depthwise@__inference_mobilenetv2_1.00_224_layer_call_and_return_conditional_losses_18312"])
#loc5232 = loc(fused["FusedBatchNormV3:", "expanded_conv_depthwise_BN/FusedBatchNormV3@__inference_mobilenetv2_1.00_224_layer_call_and_return_conditional_losses_18312"])
#loc5233 = loc(fused["AssignVariableOp:", "expanded_conv_depthwise_BN/AssignNewValue@__inference_mobilenetv2_1.00_224_layer_call_and_return_conditional_losses_18312"])
#loc5234 = loc(fused["AssignVariableOp:", "expanded_conv_depthwise_BN/AssignNewValue_1@__inference_mobilenetv2_1.00_224_layer_call_and_return_conditional_losses_18312"])
#loc5235 = loc(fused["Relu6:", "expanded_conv_depthwise_relu/Relu6@__inference_mobilenetv2_1.00_224_layer_call_and_return_conditional_losses_18312"])
#loc5236 = loc(fused["Conv2D:", "expanded_conv_project/Conv2D@__inference_mobilenetv2_1.00_224_layer_call_and_return_conditional_losses_18312"])
#loc5237 = loc(fused["FusedBatchNormV3:", "expanded_conv_project_BN/FusedBatchNormV3@__inference_mobilenetv2_1.00_224_layer_call_and_return_conditional_losses_18312"])
#loc5238 = loc(fused["Conv2D:", "block_1_expand/Conv2D@__inference_mobilenetv2_1.00_224_layer_call_and_return_conditional_losses_18312"])
#loc5239 = loc(fused["FusedBatchNormV3:", "block_1_expand_BN/FusedBatchNormV3@__inference_mobilenetv2_1.00_224_layer_call_and_return_conditional_losses_18312"])
#loc5240 = loc(fused["AssignVariableOp:", "block_1_expand_BN/AssignNewValue@__inference_mobilenetv2_1.00_224_layer_call_and_return_conditional_losses_18312"])
#loc5241 = loc(fused["AssignVariableOp:", "block_1_expand_BN/AssignNewValue_1@__inference_mobilenetv2_1.00_224_layer_call_and_return_conditional_losses_18312"])
#loc5242 = loc(fused["Relu6:", "block_1_expand_relu/Relu6@__inference_mobilenetv2_1.00_224_layer_call_and_return_conditional_losses_18312"])
#loc5243 = loc(fused["Pad:", "block_1_pad/Pad@__inference_mobilenetv2_1.00_224_layer_call_and_return_conditional_losses_18312"])
#loc5244 = loc(fused["DepthwiseConv2dNative:", "block_1_depthwise/depthwise@__inference_mobilenetv2_1.00_224_layer_call_and_return_conditional_losses_18312"])
#loc5245 = loc(fused["FusedBatchNormV3:", "block_1_depthwise_BN/FusedBatchNormV3@__inference_mobilenetv2_1.00_224_layer_call_and_return_conditional_losses_18312"])
#loc5246 = loc(fused["AssignVariableOp:", "block_1_depthwise_BN/AssignNewValue@__inference_mobilenetv2_1.00_224_layer_call_and_return_conditional_losses_18312"])
#loc5247 = loc(fused["AssignVariableOp:", "block_1_depthwise_BN/AssignNewValue_1@__inference_mobilenetv2_1.00_224_layer_call_and_return_conditional_losses_18312"])
#loc5248 = loc(fused["Relu6:", "block_1_depthwise_relu/Relu6@__inference_mobilenetv2_1.00_224_layer_call_and_return_conditional_losses_18312"])
#loc5249 = loc(fused["Conv2D:", "block_1_project/Conv2D@__inference_mobilenetv2_1.00_224_layer_call_and_return_conditional_losses_18312"])
#loc5250 = loc(fused["FusedBatchNormV3:", "block_1_project_BN/FusedBatchNormV3@__inference_mobilenetv2_1.00_224_layer_call_and_return_conditional_losses_18312"])
#loc5251 = loc(fused["AssignVariableOp:", "block_1_project_BN/AssignNewValue@__inference_mobilenetv2_1.00_224_layer_call_and_return_conditional_losses_18312"])
#loc5252 = loc(fused["AssignVariableOp:", "block_1_project_BN/AssignNewValue_1@__inference_mobilenetv2_1.00_224_layer_call_and_return_conditional_losses_18312"])
#loc5253 = loc(fused["Conv2D:", "block_2_expand/Conv2D@__inference_mobilenetv2_1.00_224_layer_call_and_return_conditional_losses_18312"])
#loc5254 = loc(fused["FusedBatchNormV3:", "block_2_expand_BN/FusedBatchNormV3@__inference_mobilenetv2_1.00_224_layer_call_and_return_conditional_losses_18312"])
#loc5255 = loc(fused["AssignVariableOp:", "block_2_expand_BN/AssignNewValue@__inference_mobilenetv2_1.00_224_layer_call_and_return_conditional_losses_18312"])
#loc5256 = loc(fused["AssignVariableOp:", "block_2_expand_BN/AssignNewValue_1@__inference_mobilenetv2_1.00_224_layer_call_and_return_conditional_losses_18312"])
#loc5257 = loc(fused["Relu6:", "block_2_expand_relu/Relu6@__inference_mobilenetv2_1.00_224_layer_call_and_return_conditional_losses_18312"])
#loc5258 = loc(fused["DepthwiseConv2dNative:", "block_2_depthwise/depthwise@__inference_mobilenetv2_1.00_224_layer_call_and_return_conditional_losses_18312"])
#loc5259 = loc(fused["FusedBatchNormV3:", "block_2_depthwise_BN/FusedBatchNormV3@__inference_mobilenetv2_1.00_224_layer_call_and_return_conditional_losses_18312"])
#loc5260 = loc(fused["AssignVariableOp:", "block_2_depthwise_BN/AssignNewValue@__inference_mobilenetv2_1.00_224_layer_call_and_return_conditional_losses_18312"])
#loc5261 = loc(fused["AssignVariableOp:", "block_2_depthwise_BN/AssignNewValue_1@__inference_mobilenetv2_1.00_224_layer_call_and_return_conditional_losses_18312"])
#loc5262 = loc(fused["Relu6:", "block_2_depthwise_relu/Relu6@__inference_mobilenetv2_1.00_224_layer_call_and_return_conditional_losses_18312"])
#loc5263 = loc(fused["Conv2D:", "block_2_project/Conv2D@__inference_mobilenetv2_1.00_224_layer_call_and_return_conditional_losses_18312"])
#loc5264 = loc(fused["FusedBatchNormV3:", "block_2_project_BN/FusedBatchNormV3@__inference_mobilenetv2_1.00_224_layer_call_and_return_conditional_losses_18312"])
#loc5265 = loc(fused["AddV2:", "block_2_add/add@__inference_mobilenetv2_1.00_224_layer_call_and_return_conditional_losses_18312"])
#loc5266 = loc(fused["Conv2D:", "block_3_expand/Conv2D@__inference_mobilenetv2_1.00_224_layer_call_and_return_conditional_losses_18312"])
#loc5267 = loc(fused["FusedBatchNormV3:", "block_3_expand_BN/FusedBatchNormV3@__inference_mobilenetv2_1.00_224_layer_call_and_return_conditional_losses_18312"])
#loc5268 = loc(fused["AssignVariableOp:", "block_3_expand_BN/AssignNewValue@__inference_mobilenetv2_1.00_224_layer_call_and_return_conditional_losses_18312"])
#loc5269 = loc(fused["AssignVariableOp:", "block_3_expand_BN/AssignNewValue_1@__inference_mobilenetv2_1.00_224_layer_call_and_return_conditional_losses_18312"])
#loc5270 = loc(fused["Relu6:", "block_3_expand_relu/Relu6@__inference_mobilenetv2_1.00_224_layer_call_and_return_conditional_losses_18312"])
#loc5271 = loc(fused["Pad:", "block_3_pad/Pad@__inference_mobilenetv2_1.00_224_layer_call_and_return_conditional_losses_18312"])
#loc5272 = loc(fused["DepthwiseConv2dNative:", "block_3_depthwise/depthwise@__inference_mobilenetv2_1.00_224_layer_call_and_return_conditional_losses_18312"])
#loc5273 = loc(fused["FusedBatchNormV3:", "block_3_depthwise_BN/FusedBatchNormV3@__inference_mobilenetv2_1.00_224_layer_call_and_return_conditional_losses_18312"])
#loc5274 = loc(fused["AssignVariableOp:", "block_3_depthwise_BN/AssignNewValue@__inference_mobilenetv2_1.00_224_layer_call_and_return_conditional_losses_18312"])
#loc5275 = loc(fused["AssignVariableOp:", "block_3_depthwise_BN/AssignNewValue_1@__inference_mobilenetv2_1.00_224_layer_call_and_return_conditional_losses_18312"])
#loc5276 = loc(fused["Relu6:", "block_3_depthwise_relu/Relu6@__inference_mobilenetv2_1.00_224_layer_call_and_return_conditional_losses_18312"])
#loc5277 = loc(fused["Conv2D:", "block_3_project/Conv2D@__inference_mobilenetv2_1.00_224_layer_call_and_return_conditional_losses_18312"])
#loc5278 = loc(fused["FusedBatchNormV3:", "block_3_project_BN/FusedBatchNormV3@__inference_mobilenetv2_1.00_224_layer_call_and_return_conditional_losses_18312"])
#loc5279 = loc(fused["AssignVariableOp:", "block_3_project_BN/AssignNewValue@__inference_mobilenetv2_1.00_224_layer_call_and_return_conditional_losses_18312"])
#loc5280 = loc(fused["AssignVariableOp:", "block_3_project_BN/AssignNewValue_1@__inference_mobilenetv2_1.00_224_layer_call_and_return_conditional_losses_18312"])
#loc5281 = loc(fused["Conv2D:", "block_4_expand/Conv2D@__inference_mobilenetv2_1.00_224_layer_call_and_return_conditional_losses_18312"])
#loc5282 = loc(fused["FusedBatchNormV3:", "block_4_expand_BN/FusedBatchNormV3@__inference_mobilenetv2_1.00_224_layer_call_and_return_conditional_losses_18312"])
#loc5283 = loc(fused["AssignVariableOp:", "block_4_expand_BN/AssignNewValue@__inference_mobilenetv2_1.00_224_layer_call_and_return_conditional_losses_18312"])
#loc5284 = loc(fused["AssignVariableOp:", "block_4_expand_BN/AssignNewValue_1@__inference_mobilenetv2_1.00_224_layer_call_and_return_conditional_losses_18312"])
#loc5285 = loc(fused["Relu6:", "block_4_expand_relu/Relu6@__inference_mobilenetv2_1.00_224_layer_call_and_return_conditional_losses_18312"])
#loc5286 = loc(fused["DepthwiseConv2dNative:", "block_4_depthwise/depthwise@__inference_mobilenetv2_1.00_224_layer_call_and_return_conditional_losses_18312"])
#loc5287 = loc(fused["FusedBatchNormV3:", "block_4_depthwise_BN/FusedBatchNormV3@__inference_mobilenetv2_1.00_224_layer_call_and_return_conditional_losses_18312"])
#loc5288 = loc(fused["AssignVariableOp:", "block_4_depthwise_BN/AssignNewValue@__inference_mobilenetv2_1.00_224_layer_call_and_return_conditional_losses_18312"])
#loc5289 = loc(fused["AssignVariableOp:", "block_4_depthwise_BN/AssignNewValue_1@__inference_mobilenetv2_1.00_224_layer_call_and_return_conditional_losses_18312"])
#loc5290 = loc(fused["Relu6:", "block_4_depthwise_relu/Relu6@__inference_mobilenetv2_1.00_224_layer_call_and_return_conditional_losses_18312"])
#loc5291 = loc(fused["Conv2D:", "block_4_project/Conv2D@__inference_mobilenetv2_1.00_224_layer_call_and_return_conditional_losses_18312"])
#loc5292 = loc(fused["FusedBatchNormV3:", "block_4_project_BN/FusedBatchNormV3@__inference_mobilenetv2_1.00_224_layer_call_and_return_conditional_losses_18312"])
#loc5293 = loc(fused["AddV2:", "block_4_add/add@__inference_mobilenetv2_1.00_224_layer_call_and_return_conditional_losses_18312"])
#loc5294 = loc(fused["Conv2D:", "block_5_expand/Conv2D@__inference_mobilenetv2_1.00_224_layer_call_and_return_conditional_losses_18312"])
#loc5295 = loc(fused["FusedBatchNormV3:", "block_5_expand_BN/FusedBatchNormV3@__inference_mobilenetv2_1.00_224_layer_call_and_return_conditional_losses_18312"])
#loc5296 = loc(fused["AssignVariableOp:", "block_5_expand_BN/AssignNewValue@__inference_mobilenetv2_1.00_224_layer_call_and_return_conditional_losses_18312"])
#loc5297 = loc(fused["AssignVariableOp:", "block_5_expand_BN/AssignNewValue_1@__inference_mobilenetv2_1.00_224_layer_call_and_return_conditional_losses_18312"])
#loc5298 = loc(fused["Relu6:", "block_5_expand_relu/Relu6@__inference_mobilenetv2_1.00_224_layer_call_and_return_conditional_losses_18312"])
#loc5299 = loc(fused["DepthwiseConv2dNative:", "block_5_depthwise/depthwise@__inference_mobilenetv2_1.00_224_layer_call_and_return_conditional_losses_18312"])
#loc5300 = loc(fused["FusedBatchNormV3:", "block_5_depthwise_BN/FusedBatchNormV3@__inference_mobilenetv2_1.00_224_layer_call_and_return_conditional_losses_18312"])
#loc5301 = loc(fused["AssignVariableOp:", "block_5_depthwise_BN/AssignNewValue@__inference_mobilenetv2_1.00_224_layer_call_and_return_conditional_losses_18312"])
#loc5302 = loc(fused["AssignVariableOp:", "block_5_depthwise_BN/AssignNewValue_1@__inference_mobilenetv2_1.00_224_layer_call_and_return_conditional_losses_18312"])
#loc5303 = loc(fused["Relu6:", "block_5_depthwise_relu/Relu6@__inference_mobilenetv2_1.00_224_layer_call_and_return_conditional_losses_18312"])
#loc5304 = loc(fused["Conv2D:", "block_5_project/Conv2D@__inference_mobilenetv2_1.00_224_layer_call_and_return_conditional_losses_18312"])
#loc5305 = loc(fused["FusedBatchNormV3:", "block_5_project_BN/FusedBatchNormV3@__inference_mobilenetv2_1.00_224_layer_call_and_return_conditional_losses_18312"])
#loc5306 = loc(fused["AddV2:", "block_5_add/add@__inference_mobilenetv2_1.00_224_layer_call_and_return_conditional_losses_18312"])
#loc5307 = loc(fused["Conv2D:", "block_6_expand/Conv2D@__inference_mobilenetv2_1.00_224_layer_call_and_return_conditional_losses_18312"])
#loc5308 = loc(fused["FusedBatchNormV3:", "block_6_expand_BN/FusedBatchNormV3@__inference_mobilenetv2_1.00_224_layer_call_and_return_conditional_losses_18312"])
#loc5309 = loc(fused["AssignVariableOp:", "block_6_expand_BN/AssignNewValue@__inference_mobilenetv2_1.00_224_layer_call_and_return_conditional_losses_18312"])
#loc5310 = loc(fused["AssignVariableOp:", "block_6_expand_BN/AssignNewValue_1@__inference_mobilenetv2_1.00_224_layer_call_and_return_conditional_losses_18312"])
#loc5311 = loc(fused["Relu6:", "block_6_expand_relu/Relu6@__inference_mobilenetv2_1.00_224_layer_call_and_return_conditional_losses_18312"])
#loc5312 = loc(fused["Pad:", "block_6_pad/Pad@__inference_mobilenetv2_1.00_224_layer_call_and_return_conditional_losses_18312"])
#loc5313 = loc(fused["DepthwiseConv2dNative:", "block_6_depthwise/depthwise@__inference_mobilenetv2_1.00_224_layer_call_and_return_conditional_losses_18312"])
#loc5314 = loc(fused["FusedBatchNormV3:", "block_6_depthwise_BN/FusedBatchNormV3@__inference_mobilenetv2_1.00_224_layer_call_and_return_conditional_losses_18312"])
#loc5315 = loc(fused["AssignVariableOp:", "block_6_depthwise_BN/AssignNewValue@__inference_mobilenetv2_1.00_224_layer_call_and_return_conditional_losses_18312"])
#loc5316 = loc(fused["AssignVariableOp:", "block_6_depthwise_BN/AssignNewValue_1@__inference_mobilenetv2_1.00_224_layer_call_and_return_conditional_losses_18312"])
#loc5317 = loc(fused["Relu6:", "block_6_depthwise_relu/Relu6@__inference_mobilenetv2_1.00_224_layer_call_and_return_conditional_losses_18312"])
#loc5318 = loc(fused["Conv2D:", "block_6_project/Conv2D@__inference_mobilenetv2_1.00_224_layer_call_and_return_conditional_losses_18312"])
#loc5319 = loc(fused["FusedBatchNormV3:", "block_6_project_BN/FusedBatchNormV3@__inference_mobilenetv2_1.00_224_layer_call_and_return_conditional_losses_18312"])
#loc5320 = loc(fused["AssignVariableOp:", "block_6_project_BN/AssignNewValue@__inference_mobilenetv2_1.00_224_layer_call_and_return_conditional_losses_18312"])
#loc5321 = loc(fused["AssignVariableOp:", "block_6_project_BN/AssignNewValue_1@__inference_mobilenetv2_1.00_224_layer_call_and_return_conditional_losses_18312"])
#loc5322 = loc(fused["Conv2D:", "block_7_expand/Conv2D@__inference_mobilenetv2_1.00_224_layer_call_and_return_conditional_losses_18312"])
#loc5323 = loc(fused["FusedBatchNormV3:", "block_7_expand_BN/FusedBatchNormV3@__inference_mobilenetv2_1.00_224_layer_call_and_return_conditional_losses_18312"])
#loc5324 = loc(fused["AssignVariableOp:", "block_7_expand_BN/AssignNewValue@__inference_mobilenetv2_1.00_224_layer_call_and_return_conditional_losses_18312"])
#loc5325 = loc(fused["AssignVariableOp:", "block_7_expand_BN/AssignNewValue_1@__inference_mobilenetv2_1.00_224_layer_call_and_return_conditional_losses_18312"])
#loc5326 = loc(fused["Relu6:", "block_7_expand_relu/Relu6@__inference_mobilenetv2_1.00_224_layer_call_and_return_conditional_losses_18312"])
#loc5327 = loc(fused["DepthwiseConv2dNative:", "block_7_depthwise/depthwise@__inference_mobilenetv2_1.00_224_layer_call_and_return_conditional_losses_18312"])
#loc5328 = loc(fused["FusedBatchNormV3:", "block_7_depthwise_BN/FusedBatchNormV3@__inference_mobilenetv2_1.00_224_layer_call_and_return_conditional_losses_18312"])
#loc5329 = loc(fused["AssignVariableOp:", "block_7_depthwise_BN/AssignNewValue@__inference_mobilenetv2_1.00_224_layer_call_and_return_conditional_losses_18312"])
#loc5330 = loc(fused["AssignVariableOp:", "block_7_depthwise_BN/AssignNewValue_1@__inference_mobilenetv2_1.00_224_layer_call_and_return_conditional_losses_18312"])
#loc5331 = loc(fused["Relu6:", "block_7_depthwise_relu/Relu6@__inference_mobilenetv2_1.00_224_layer_call_and_return_conditional_losses_18312"])
#loc5332 = loc(fused["Conv2D:", "block_7_project/Conv2D@__inference_mobilenetv2_1.00_224_layer_call_and_return_conditional_losses_18312"])
#loc5333 = loc(fused["FusedBatchNormV3:", "block_7_project_BN/FusedBatchNormV3@__inference_mobilenetv2_1.00_224_layer_call_and_return_conditional_losses_18312"])
#loc5334 = loc(fused["AddV2:", "block_7_add/add@__inference_mobilenetv2_1.00_224_layer_call_and_return_conditional_losses_18312"])
#loc5335 = loc(fused["Conv2D:", "block_8_expand/Conv2D@__inference_mobilenetv2_1.00_224_layer_call_and_return_conditional_losses_18312"])
#loc5336 = loc(fused["FusedBatchNormV3:", "block_8_expand_BN/FusedBatchNormV3@__inference_mobilenetv2_1.00_224_layer_call_and_return_conditional_losses_18312"])
#loc5337 = loc(fused["AssignVariableOp:", "block_8_expand_BN/AssignNewValue@__inference_mobilenetv2_1.00_224_layer_call_and_return_conditional_losses_18312"])
#loc5338 = loc(fused["AssignVariableOp:", "block_8_expand_BN/AssignNewValue_1@__inference_mobilenetv2_1.00_224_layer_call_and_return_conditional_losses_18312"])
#loc5339 = loc(fused["Relu6:", "block_8_expand_relu/Relu6@__inference_mobilenetv2_1.00_224_layer_call_and_return_conditional_losses_18312"])
#loc5340 = loc(fused["DepthwiseConv2dNative:", "block_8_depthwise/depthwise@__inference_mobilenetv2_1.00_224_layer_call_and_return_conditional_losses_18312"])
#loc5341 = loc(fused["FusedBatchNormV3:", "block_8_depthwise_BN/FusedBatchNormV3@__inference_mobilenetv2_1.00_224_layer_call_and_return_conditional_losses_18312"])
#loc5342 = loc(fused["AssignVariableOp:", "block_8_depthwise_BN/AssignNewValue@__inference_mobilenetv2_1.00_224_layer_call_and_return_conditional_losses_18312"])
#loc5343 = loc(fused["AssignVariableOp:", "block_8_depthwise_BN/AssignNewValue_1@__inference_mobilenetv2_1.00_224_layer_call_and_return_conditional_losses_18312"])
#loc5344 = loc(fused["Relu6:", "block_8_depthwise_relu/Relu6@__inference_mobilenetv2_1.00_224_layer_call_and_return_conditional_losses_18312"])
#loc5345 = loc(fused["Conv2D:", "block_8_project/Conv2D@__inference_mobilenetv2_1.00_224_layer_call_and_return_conditional_losses_18312"])
#loc5346 = loc(fused["FusedBatchNormV3:", "block_8_project_BN/FusedBatchNormV3@__inference_mobilenetv2_1.00_224_layer_call_and_return_conditional_losses_18312"])
#loc5347 = loc(fused["AddV2:", "block_8_add/add@__inference_mobilenetv2_1.00_224_layer_call_and_return_conditional_losses_18312"])
#loc5348 = loc(fused["Conv2D:", "block_9_expand/Conv2D@__inference_mobilenetv2_1.00_224_layer_call_and_return_conditional_losses_18312"])
#loc5349 = loc(fused["FusedBatchNormV3:", "block_9_expand_BN/FusedBatchNormV3@__inference_mobilenetv2_1.00_224_layer_call_and_return_conditional_losses_18312"])
#loc5350 = loc(fused["AssignVariableOp:", "block_9_expand_BN/AssignNewValue@__inference_mobilenetv2_1.00_224_layer_call_and_return_conditional_losses_18312"])
#loc5351 = loc(fused["AssignVariableOp:", "block_9_expand_BN/AssignNewValue_1@__inference_mobilenetv2_1.00_224_layer_call_and_return_conditional_losses_18312"])
#loc5352 = loc(fused["Relu6:", "block_9_expand_relu/Relu6@__inference_mobilenetv2_1.00_224_layer_call_and_return_conditional_losses_18312"])
#loc5353 = loc(fused["DepthwiseConv2dNative:", "block_9_depthwise/depthwise@__inference_mobilenetv2_1.00_224_layer_call_and_return_conditional_losses_18312"])
#loc5354 = loc(fused["FusedBatchNormV3:", "block_9_depthwise_BN/FusedBatchNormV3@__inference_mobilenetv2_1.00_224_layer_call_and_return_conditional_losses_18312"])
#loc5355 = loc(fused["AssignVariableOp:", "block_9_depthwise_BN/AssignNewValue@__inference_mobilenetv2_1.00_224_layer_call_and_return_conditional_losses_18312"])
#loc5356 = loc(fused["AssignVariableOp:", "block_9_depthwise_BN/AssignNewValue_1@__inference_mobilenetv2_1.00_224_layer_call_and_return_conditional_losses_18312"])
#loc5357 = loc(fused["Relu6:", "block_9_depthwise_relu/Relu6@__inference_mobilenetv2_1.00_224_layer_call_and_return_conditional_losses_18312"])
#loc5358 = loc(fused["Conv2D:", "block_9_project/Conv2D@__inference_mobilenetv2_1.00_224_layer_call_and_return_conditional_losses_18312"])
#loc5359 = loc(fused["FusedBatchNormV3:", "block_9_project_BN/FusedBatchNormV3@__inference_mobilenetv2_1.00_224_layer_call_and_return_conditional_losses_18312"])
#loc5360 = loc(fused["AddV2:", "block_9_add/add@__inference_mobilenetv2_1.00_224_layer_call_and_return_conditional_losses_18312"])
#loc5361 = loc(fused["Conv2D:", "block_10_expand/Conv2D@__inference_mobilenetv2_1.00_224_layer_call_and_return_conditional_losses_18312"])
#loc5362 = loc(fused["FusedBatchNormV3:", "block_10_expand_BN/FusedBatchNormV3@__inference_mobilenetv2_1.00_224_layer_call_and_return_conditional_losses_18312"])
#loc5363 = loc(fused["AssignVariableOp:", "block_10_expand_BN/AssignNewValue@__inference_mobilenetv2_1.00_224_layer_call_and_return_conditional_losses_18312"])
#loc5364 = loc(fused["AssignVariableOp:", "block_10_expand_BN/AssignNewValue_1@__inference_mobilenetv2_1.00_224_layer_call_and_return_conditional_losses_18312"])
#loc5365 = loc(fused["Relu6:", "block_10_expand_relu/Relu6@__inference_mobilenetv2_1.00_224_layer_call_and_return_conditional_losses_18312"])
#loc5366 = loc(fused["DepthwiseConv2dNative:", "block_10_depthwise/depthwise@__inference_mobilenetv2_1.00_224_layer_call_and_return_conditional_losses_18312"])
#loc5367 = loc(fused["FusedBatchNormV3:", "block_10_depthwise_BN/FusedBatchNormV3@__inference_mobilenetv2_1.00_224_layer_call_and_return_conditional_losses_18312"])
#loc5368 = loc(fused["AssignVariableOp:", "block_10_depthwise_BN/AssignNewValue@__inference_mobilenetv2_1.00_224_layer_call_and_return_conditional_losses_18312"])
#loc5369 = loc(fused["AssignVariableOp:", "block_10_depthwise_BN/AssignNewValue_1@__inference_mobilenetv2_1.00_224_layer_call_and_return_conditional_losses_18312"])
#loc5370 = loc(fused["Relu6:", "block_10_depthwise_relu/Relu6@__inference_mobilenetv2_1.00_224_layer_call_and_return_conditional_losses_18312"])
#loc5371 = loc(fused["Conv2D:", "block_10_project/Conv2D@__inference_mobilenetv2_1.00_224_layer_call_and_return_conditional_losses_18312"])
#loc5372 = loc(fused["FusedBatchNormV3:", "block_10_project_BN/FusedBatchNormV3@__inference_mobilenetv2_1.00_224_layer_call_and_return_conditional_losses_18312"])
#loc5373 = loc(fused["AssignVariableOp:", "block_10_project_BN/AssignNewValue@__inference_mobilenetv2_1.00_224_layer_call_and_return_conditional_losses_18312"])
#loc5374 = loc(fused["AssignVariableOp:", "block_10_project_BN/AssignNewValue_1@__inference_mobilenetv2_1.00_224_layer_call_and_return_conditional_losses_18312"])
#loc5375 = loc(fused["Conv2D:", "block_11_expand/Conv2D@__inference_mobilenetv2_1.00_224_layer_call_and_return_conditional_losses_18312"])
#loc5376 = loc(fused["FusedBatchNormV3:", "block_11_expand_BN/FusedBatchNormV3@__inference_mobilenetv2_1.00_224_layer_call_and_return_conditional_losses_18312"])
#loc5377 = loc(fused["AssignVariableOp:", "block_11_expand_BN/AssignNewValue@__inference_mobilenetv2_1.00_224_layer_call_and_return_conditional_losses_18312"])
#loc5378 = loc(fused["AssignVariableOp:", "block_11_expand_BN/AssignNewValue_1@__inference_mobilenetv2_1.00_224_layer_call_and_return_conditional_losses_18312"])
#loc5379 = loc(fused["Relu6:", "block_11_expand_relu/Relu6@__inference_mobilenetv2_1.00_224_layer_call_and_return_conditional_losses_18312"])
#loc5380 = loc(fused["DepthwiseConv2dNative:", "block_11_depthwise/depthwise@__inference_mobilenetv2_1.00_224_layer_call_and_return_conditional_losses_18312"])
#loc5381 = loc(fused["FusedBatchNormV3:", "block_11_depthwise_BN/FusedBatchNormV3@__inference_mobilenetv2_1.00_224_layer_call_and_return_conditional_losses_18312"])
#loc5382 = loc(fused["AssignVariableOp:", "block_11_depthwise_BN/AssignNewValue@__inference_mobilenetv2_1.00_224_layer_call_and_return_conditional_losses_18312"])
#loc5383 = loc(fused["AssignVariableOp:", "block_11_depthwise_BN/AssignNewValue_1@__inference_mobilenetv2_1.00_224_layer_call_and_return_conditional_losses_18312"])
#loc5384 = loc(fused["Relu6:", "block_11_depthwise_relu/Relu6@__inference_mobilenetv2_1.00_224_layer_call_and_return_conditional_losses_18312"])
#loc5385 = loc(fused["Conv2D:", "block_11_project/Conv2D@__inference_mobilenetv2_1.00_224_layer_call_and_return_conditional_losses_18312"])
#loc5386 = loc(fused["FusedBatchNormV3:", "block_11_project_BN/FusedBatchNormV3@__inference_mobilenetv2_1.00_224_layer_call_and_return_conditional_losses_18312"])
#loc5387 = loc(fused["AddV2:", "block_11_add/add@__inference_mobilenetv2_1.00_224_layer_call_and_return_conditional_losses_18312"])
#loc5388 = loc(fused["Conv2D:", "block_12_expand/Conv2D@__inference_mobilenetv2_1.00_224_layer_call_and_return_conditional_losses_18312"])
#loc5389 = loc(fused["FusedBatchNormV3:", "block_12_expand_BN/FusedBatchNormV3@__inference_mobilenetv2_1.00_224_layer_call_and_return_conditional_losses_18312"])
#loc5390 = loc(fused["AssignVariableOp:", "block_12_expand_BN/AssignNewValue@__inference_mobilenetv2_1.00_224_layer_call_and_return_conditional_losses_18312"])
#loc5391 = loc(fused["AssignVariableOp:", "block_12_expand_BN/AssignNewValue_1@__inference_mobilenetv2_1.00_224_layer_call_and_return_conditional_losses_18312"])
#loc5392 = loc(fused["Relu6:", "block_12_expand_relu/Relu6@__inference_mobilenetv2_1.00_224_layer_call_and_return_conditional_losses_18312"])
#loc5393 = loc(fused["DepthwiseConv2dNative:", "block_12_depthwise/depthwise@__inference_mobilenetv2_1.00_224_layer_call_and_return_conditional_losses_18312"])
#loc5394 = loc(fused["FusedBatchNormV3:", "block_12_depthwise_BN/FusedBatchNormV3@__inference_mobilenetv2_1.00_224_layer_call_and_return_conditional_losses_18312"])
#loc5395 = loc(fused["AssignVariableOp:", "block_12_depthwise_BN/AssignNewValue@__inference_mobilenetv2_1.00_224_layer_call_and_return_conditional_losses_18312"])
#loc5396 = loc(fused["AssignVariableOp:", "block_12_depthwise_BN/AssignNewValue_1@__inference_mobilenetv2_1.00_224_layer_call_and_return_conditional_losses_18312"])
#loc5397 = loc(fused["Relu6:", "block_12_depthwise_relu/Relu6@__inference_mobilenetv2_1.00_224_layer_call_and_return_conditional_losses_18312"])
#loc5398 = loc(fused["Conv2D:", "block_12_project/Conv2D@__inference_mobilenetv2_1.00_224_layer_call_and_return_conditional_losses_18312"])
#loc5399 = loc(fused["FusedBatchNormV3:", "block_12_project_BN/FusedBatchNormV3@__inference_mobilenetv2_1.00_224_layer_call_and_return_conditional_losses_18312"])
#loc5400 = loc(fused["AddV2:", "block_12_add/add@__inference_mobilenetv2_1.00_224_layer_call_and_return_conditional_losses_18312"])
#loc5401 = loc(fused["Conv2D:", "block_13_expand/Conv2D@__inference_mobilenetv2_1.00_224_layer_call_and_return_conditional_losses_18312"])
#loc5402 = loc(fused["FusedBatchNormV3:", "block_13_expand_BN/FusedBatchNormV3@__inference_mobilenetv2_1.00_224_layer_call_and_return_conditional_losses_18312"])
#loc5403 = loc(fused["AssignVariableOp:", "block_13_expand_BN/AssignNewValue@__inference_mobilenetv2_1.00_224_layer_call_and_return_conditional_losses_18312"])
#loc5404 = loc(fused["AssignVariableOp:", "block_13_expand_BN/AssignNewValue_1@__inference_mobilenetv2_1.00_224_layer_call_and_return_conditional_losses_18312"])
#loc5405 = loc(fused["Relu6:", "block_13_expand_relu/Relu6@__inference_mobilenetv2_1.00_224_layer_call_and_return_conditional_losses_18312"])
#loc5406 = loc(fused["Pad:", "block_13_pad/Pad@__inference_mobilenetv2_1.00_224_layer_call_and_return_conditional_losses_18312"])
#loc5407 = loc(fused["DepthwiseConv2dNative:", "block_13_depthwise/depthwise@__inference_mobilenetv2_1.00_224_layer_call_and_return_conditional_losses_18312"])
#loc5408 = loc(fused["FusedBatchNormV3:", "block_13_depthwise_BN/FusedBatchNormV3@__inference_mobilenetv2_1.00_224_layer_call_and_return_conditional_losses_18312"])
#loc5409 = loc(fused["AssignVariableOp:", "block_13_depthwise_BN/AssignNewValue@__inference_mobilenetv2_1.00_224_layer_call_and_return_conditional_losses_18312"])
#loc5410 = loc(fused["AssignVariableOp:", "block_13_depthwise_BN/AssignNewValue_1@__inference_mobilenetv2_1.00_224_layer_call_and_return_conditional_losses_18312"])
#loc5411 = loc(fused["Relu6:", "block_13_depthwise_relu/Relu6@__inference_mobilenetv2_1.00_224_layer_call_and_return_conditional_losses_18312"])
#loc5412 = loc(fused["Conv2D:", "block_13_project/Conv2D@__inference_mobilenetv2_1.00_224_layer_call_and_return_conditional_losses_18312"])
#loc5413 = loc(fused["FusedBatchNormV3:", "block_13_project_BN/FusedBatchNormV3@__inference_mobilenetv2_1.00_224_layer_call_and_return_conditional_losses_18312"])
#loc5414 = loc(fused["AssignVariableOp:", "block_13_project_BN/AssignNewValue@__inference_mobilenetv2_1.00_224_layer_call_and_return_conditional_losses_18312"])
#loc5415 = loc(fused["AssignVariableOp:", "block_13_project_BN/AssignNewValue_1@__inference_mobilenetv2_1.00_224_layer_call_and_return_conditional_losses_18312"])
#loc5416 = loc(fused["Conv2D:", "block_14_expand/Conv2D@__inference_mobilenetv2_1.00_224_layer_call_and_return_conditional_losses_18312"])
#loc5417 = loc(fused["FusedBatchNormV3:", "block_14_expand_BN/FusedBatchNormV3@__inference_mobilenetv2_1.00_224_layer_call_and_return_conditional_losses_18312"])
#loc5418 = loc(fused["AssignVariableOp:", "block_14_expand_BN/AssignNewValue@__inference_mobilenetv2_1.00_224_layer_call_and_return_conditional_losses_18312"])
#loc5419 = loc(fused["AssignVariableOp:", "block_14_expand_BN/AssignNewValue_1@__inference_mobilenetv2_1.00_224_layer_call_and_return_conditional_losses_18312"])
#loc5420 = loc(fused["Relu6:", "block_14_expand_relu/Relu6@__inference_mobilenetv2_1.00_224_layer_call_and_return_conditional_losses_18312"])
#loc5421 = loc(fused["DepthwiseConv2dNative:", "block_14_depthwise/depthwise@__inference_mobilenetv2_1.00_224_layer_call_and_return_conditional_losses_18312"])
#loc5422 = loc(fused["FusedBatchNormV3:", "block_14_depthwise_BN/FusedBatchNormV3@__inference_mobilenetv2_1.00_224_layer_call_and_return_conditional_losses_18312"])
#loc5423 = loc(fused["AssignVariableOp:", "block_14_depthwise_BN/AssignNewValue@__inference_mobilenetv2_1.00_224_layer_call_and_return_conditional_losses_18312"])
#loc5424 = loc(fused["AssignVariableOp:", "block_14_depthwise_BN/AssignNewValue_1@__inference_mobilenetv2_1.00_224_layer_call_and_return_conditional_losses_18312"])
#loc5425 = loc(fused["Relu6:", "block_14_depthwise_relu/Relu6@__inference_mobilenetv2_1.00_224_layer_call_and_return_conditional_losses_18312"])
#loc5426 = loc(fused["Conv2D:", "block_14_project/Conv2D@__inference_mobilenetv2_1.00_224_layer_call_and_return_conditional_losses_18312"])
#loc5427 = loc(fused["FusedBatchNormV3:", "block_14_project_BN/FusedBatchNormV3@__inference_mobilenetv2_1.00_224_layer_call_and_return_conditional_losses_18312"])
#loc5428 = loc(fused["AddV2:", "block_14_add/add@__inference_mobilenetv2_1.00_224_layer_call_and_return_conditional_losses_18312"])
#loc5429 = loc(fused["Conv2D:", "block_15_expand/Conv2D@__inference_mobilenetv2_1.00_224_layer_call_and_return_conditional_losses_18312"])
#loc5430 = loc(fused["FusedBatchNormV3:", "block_15_expand_BN/FusedBatchNormV3@__inference_mobilenetv2_1.00_224_layer_call_and_return_conditional_losses_18312"])
#loc5431 = loc(fused["AssignVariableOp:", "block_15_expand_BN/AssignNewValue@__inference_mobilenetv2_1.00_224_layer_call_and_return_conditional_losses_18312"])
#loc5432 = loc(fused["AssignVariableOp:", "block_15_expand_BN/AssignNewValue_1@__inference_mobilenetv2_1.00_224_layer_call_and_return_conditional_losses_18312"])
#loc5433 = loc(fused["Relu6:", "block_15_expand_relu/Relu6@__inference_mobilenetv2_1.00_224_layer_call_and_return_conditional_losses_18312"])
#loc5434 = loc(fused["DepthwiseConv2dNative:", "block_15_depthwise/depthwise@__inference_mobilenetv2_1.00_224_layer_call_and_return_conditional_losses_18312"])
#loc5435 = loc(fused["FusedBatchNormV3:", "block_15_depthwise_BN/FusedBatchNormV3@__inference_mobilenetv2_1.00_224_layer_call_and_return_conditional_losses_18312"])
#loc5436 = loc(fused["AssignVariableOp:", "block_15_depthwise_BN/AssignNewValue@__inference_mobilenetv2_1.00_224_layer_call_and_return_conditional_losses_18312"])
#loc5437 = loc(fused["AssignVariableOp:", "block_15_depthwise_BN/AssignNewValue_1@__inference_mobilenetv2_1.00_224_layer_call_and_return_conditional_losses_18312"])
#loc5438 = loc(fused["Relu6:", "block_15_depthwise_relu/Relu6@__inference_mobilenetv2_1.00_224_layer_call_and_return_conditional_losses_18312"])
#loc5439 = loc(fused["Conv2D:", "block_15_project/Conv2D@__inference_mobilenetv2_1.00_224_layer_call_and_return_conditional_losses_18312"])
#loc5440 = loc(fused["FusedBatchNormV3:", "block_15_project_BN/FusedBatchNormV3@__inference_mobilenetv2_1.00_224_layer_call_and_return_conditional_losses_18312"])
#loc5441 = loc(fused["AddV2:", "block_15_add/add@__inference_mobilenetv2_1.00_224_layer_call_and_return_conditional_losses_18312"])
#loc5442 = loc(fused["Conv2D:", "block_16_expand/Conv2D@__inference_mobilenetv2_1.00_224_layer_call_and_return_conditional_losses_18312"])
#loc5443 = loc(fused["FusedBatchNormV3:", "block_16_expand_BN/FusedBatchNormV3@__inference_mobilenetv2_1.00_224_layer_call_and_return_conditional_losses_18312"])
#loc5444 = loc(fused["AssignVariableOp:", "block_16_expand_BN/AssignNewValue@__inference_mobilenetv2_1.00_224_layer_call_and_return_conditional_losses_18312"])
#loc5445 = loc(fused["AssignVariableOp:", "block_16_expand_BN/AssignNewValue_1@__inference_mobilenetv2_1.00_224_layer_call_and_return_conditional_losses_18312"])
#loc5446 = loc(fused["Relu6:", "block_16_expand_relu/Relu6@__inference_mobilenetv2_1.00_224_layer_call_and_return_conditional_losses_18312"])
#loc5447 = loc(fused["DepthwiseConv2dNative:", "block_16_depthwise/depthwise@__inference_mobilenetv2_1.00_224_layer_call_and_return_conditional_losses_18312"])
#loc5448 = loc(fused["FusedBatchNormV3:", "block_16_depthwise_BN/FusedBatchNormV3@__inference_mobilenetv2_1.00_224_layer_call_and_return_conditional_losses_18312"])
#loc5449 = loc(fused["AssignVariableOp:", "block_16_depthwise_BN/AssignNewValue@__inference_mobilenetv2_1.00_224_layer_call_and_return_conditional_losses_18312"])
#loc5450 = loc(fused["AssignVariableOp:", "block_16_depthwise_BN/AssignNewValue_1@__inference_mobilenetv2_1.00_224_layer_call_and_return_conditional_losses_18312"])
#loc5451 = loc(fused["Relu6:", "block_16_depthwise_relu/Relu6@__inference_mobilenetv2_1.00_224_layer_call_and_return_conditional_losses_18312"])
#loc5452 = loc(fused["Conv2D:", "block_16_project/Conv2D@__inference_mobilenetv2_1.00_224_layer_call_and_return_conditional_losses_18312"])
#loc5453 = loc(fused["FusedBatchNormV3:", "block_16_project_BN/FusedBatchNormV3@__inference_mobilenetv2_1.00_224_layer_call_and_return_conditional_losses_18312"])
#loc5454 = loc(fused["Conv2D:", "Conv_1/Conv2D@__inference_mobilenetv2_1.00_224_layer_call_and_return_conditional_losses_18312"])
#loc5455 = loc(fused["FusedBatchNormV3:", "Conv_1_bn/FusedBatchNormV3@__inference_mobilenetv2_1.00_224_layer_call_and_return_conditional_losses_18312"])
#loc5456 = loc(fused["AssignVariableOp:", "Conv_1_bn/AssignNewValue@__inference_mobilenetv2_1.00_224_layer_call_and_return_conditional_losses_18312"])
#loc5457 = loc(fused["AssignVariableOp:", "Conv_1_bn/AssignNewValue_1@__inference_mobilenetv2_1.00_224_layer_call_and_return_conditional_losses_18312"])
#loc5458 = loc(fused["Relu6:", "out_relu/Relu6@__inference_mobilenetv2_1.00_224_layer_call_and_return_conditional_losses_18312"])
#loc5459 = loc(fused["Mean:", "global_average_pooling2d/Mean@__inference_mobilenetv2_1.00_224_layer_call_and_return_conditional_losses_18312"])
#loc5460 = loc(fused["AssignVariableOp:", "block_16_project_BN/AssignNewValue@__inference_mobilenetv2_1.00_224_layer_call_and_return_conditional_losses_18312"])
#loc5461 = loc(fused["AssignVariableOp:", "block_16_project_BN/AssignNewValue_1@__inference_mobilenetv2_1.00_224_layer_call_and_return_conditional_losses_18312"])
#loc5462 = loc(fused["AssignVariableOp:", "block_15_project_BN/AssignNewValue@__inference_mobilenetv2_1.00_224_layer_call_and_return_conditional_losses_18312"])
#loc5463 = loc(fused["AssignVariableOp:", "block_15_project_BN/AssignNewValue_1@__inference_mobilenetv2_1.00_224_layer_call_and_return_conditional_losses_18312"])
#loc5464 = loc(fused["AssignVariableOp:", "block_14_project_BN/AssignNewValue@__inference_mobilenetv2_1.00_224_layer_call_and_return_conditional_losses_18312"])
#loc5465 = loc(fused["AssignVariableOp:", "block_14_project_BN/AssignNewValue_1@__inference_mobilenetv2_1.00_224_layer_call_and_return_conditional_losses_18312"])
#loc5466 = loc(fused["AssignVariableOp:", "block_12_project_BN/AssignNewValue@__inference_mobilenetv2_1.00_224_layer_call_and_return_conditional_losses_18312"])
#loc5467 = loc(fused["AssignVariableOp:", "block_12_project_BN/AssignNewValue_1@__inference_mobilenetv2_1.00_224_layer_call_and_return_conditional_losses_18312"])
#loc5468 = loc(fused["AssignVariableOp:", "block_11_project_BN/AssignNewValue@__inference_mobilenetv2_1.00_224_layer_call_and_return_conditional_losses_18312"])
#loc5469 = loc(fused["AssignVariableOp:", "block_11_project_BN/AssignNewValue_1@__inference_mobilenetv2_1.00_224_layer_call_and_return_conditional_losses_18312"])
#loc5470 = loc(fused["AssignVariableOp:", "block_9_project_BN/AssignNewValue@__inference_mobilenetv2_1.00_224_layer_call_and_return_conditional_losses_18312"])
#loc5471 = loc(fused["AssignVariableOp:", "block_9_project_BN/AssignNewValue_1@__inference_mobilenetv2_1.00_224_layer_call_and_return_conditional_losses_18312"])
#loc5472 = loc(fused["AssignVariableOp:", "block_8_project_BN/AssignNewValue@__inference_mobilenetv2_1.00_224_layer_call_and_return_conditional_losses_18312"])
#loc5473 = loc(fused["AssignVariableOp:", "block_8_project_BN/AssignNewValue_1@__inference_mobilenetv2_1.00_224_layer_call_and_return_conditional_losses_18312"])
#loc5474 = loc(fused["AssignVariableOp:", "block_7_project_BN/AssignNewValue@__inference_mobilenetv2_1.00_224_layer_call_and_return_conditional_losses_18312"])
#loc5475 = loc(fused["AssignVariableOp:", "block_7_project_BN/AssignNewValue_1@__inference_mobilenetv2_1.00_224_layer_call_and_return_conditional_losses_18312"])
#loc5476 = loc(fused["AssignVariableOp:", "block_5_project_BN/AssignNewValue@__inference_mobilenetv2_1.00_224_layer_call_and_return_conditional_losses_18312"])
#loc5477 = loc(fused["AssignVariableOp:", "block_5_project_BN/AssignNewValue_1@__inference_mobilenetv2_1.00_224_layer_call_and_return_conditional_losses_18312"])
#loc5478 = loc(fused["AssignVariableOp:", "block_4_project_BN/AssignNewValue@__inference_mobilenetv2_1.00_224_layer_call_and_return_conditional_losses_18312"])
#loc5479 = loc(fused["AssignVariableOp:", "block_4_project_BN/AssignNewValue_1@__inference_mobilenetv2_1.00_224_layer_call_and_return_conditional_losses_18312"])
#loc5480 = loc(fused["AssignVariableOp:", "block_2_project_BN/AssignNewValue@__inference_mobilenetv2_1.00_224_layer_call_and_return_conditional_losses_18312"])
#loc5481 = loc(fused["AssignVariableOp:", "block_2_project_BN/AssignNewValue_1@__inference_mobilenetv2_1.00_224_layer_call_and_return_conditional_losses_18312"])
#loc5482 = loc(fused["AssignVariableOp:", "expanded_conv_project_BN/AssignNewValue@__inference_mobilenetv2_1.00_224_layer_call_and_return_conditional_losses_18312"])
#loc5483 = loc(fused["AssignVariableOp:", "expanded_conv_project_BN/AssignNewValue_1@__inference_mobilenetv2_1.00_224_layer_call_and_return_conditional_losses_18312"])
#loc5484 = loc(fused["AssignVariableOp:", "bn_Conv1/AssignNewValue@__inference_mobilenetv2_1.00_224_layer_call_and_return_conditional_losses_18312"])
#loc5485 = loc(fused["AssignVariableOp:", "bn_Conv1/AssignNewValue_1@__inference_mobilenetv2_1.00_224_layer_call_and_return_conditional_losses_18312"])
#loc5486 = loc(fused["ReadVariableOp:", "predictions/BiasAdd/ReadVariableOp@__inference_mobilenetv2_1.00_224_layer_call_and_return_conditional_losses_18312"])
#loc5487 = loc(fused["ReadVariableOp:", "predictions/MatMul/ReadVariableOp@__inference_mobilenetv2_1.00_224_layer_call_and_return_conditional_losses_18312"])
#loc5488 = loc(fused["NoOp:", "NoOp@__inference_mobilenetv2_1.00_224_layer_call_and_return_conditional_losses_18312"])
#loc5489 = loc(fused["MatMul:", "predictions/MatMul@__inference_mobilenetv2_1.00_224_layer_call_and_return_conditional_losses_18312"])
#loc5490 = loc(fused["BiasAdd:", "predictions/BiasAdd@__inference_mobilenetv2_1.00_224_layer_call_and_return_conditional_losses_18312"])
#loc5491 = loc(fused["Softmax:", "predictions/Softmax@__inference_mobilenetv2_1.00_224_layer_call_and_return_conditional_losses_18312"])
#loc5492 = loc(fused["Identity:", "Identity@__inference_mobilenetv2_1.00_224_layer_call_and_return_conditional_losses_18312"])
#loc5493 = loc(fused["StatefulPartitionedCall:", "StatefulPartitionedCall@__inference_mobilenetv2_1.00_224_layer_call_fn_10944"])
#loc5494 = loc(fused["NoOp:", "NoOp@__inference_mobilenetv2_1.00_224_layer_call_fn_10944"])
#loc5495 = loc(fused["Identity:", "Identity@__inference_mobilenetv2_1.00_224_layer_call_fn_10944"])
#loc5496 = loc(fused["StatefulPartitionedCall:", "StatefulPartitionedCall@__inference_mobilenetv2_1.00_224_layer_call_fn_13920"])
#loc5497 = loc(fused["NoOp:", "NoOp@__inference_mobilenetv2_1.00_224_layer_call_fn_13920"])
#loc5498 = loc(fused["Identity:", "Identity@__inference_mobilenetv2_1.00_224_layer_call_fn_13920"])
#loc5499 = loc(fused["StatefulPartitionedCall:", "StatefulPartitionedCall@__inference_mobilenetv2_1.00_224_layer_call_fn_15815"])
#loc5500 = loc(fused["NoOp:", "NoOp@__inference_mobilenetv2_1.00_224_layer_call_fn_15815"])
#loc5501 = loc(fused["Identity:", "Identity@__inference_mobilenetv2_1.00_224_layer_call_fn_15815"])
#loc5502 = loc(fused["StatefulPartitionedCall:", "StatefulPartitionedCall@__inference_mobilenetv2_1.00_224_layer_call_fn_16344"])
#loc5503 = loc(fused["NoOp:", "NoOp@__inference_mobilenetv2_1.00_224_layer_call_fn_16344"])
#loc5504 = loc(fused["Identity:", "Identity@__inference_mobilenetv2_1.00_224_layer_call_fn_16344"])
#loc5505 = loc(fused["Relu6:", "Relu6@__inference_out_relu_layer_call_and_return_conditional_losses_10396"])
#loc5506 = loc(fused["Identity:", "Identity@__inference_out_relu_layer_call_and_return_conditional_losses_10396"])
#loc5507 = loc(fused["Relu6:", "Relu6@__inference_out_relu_layer_call_and_return_conditional_losses_22812"])
#loc5508 = loc(fused["Identity:", "Identity@__inference_out_relu_layer_call_and_return_conditional_losses_22812"])
#loc5509 = loc(fused["PartitionedCall:", "PartitionedCall@__inference_out_relu_layer_call_fn_22807"])
#loc5510 = loc(fused["Identity:", "Identity@__inference_out_relu_layer_call_fn_22807"])
#loc5511 = loc(fused["ReadVariableOp:", "BiasAdd/ReadVariableOp@__inference_predictions_layer_call_and_return_conditional_losses_10410"])
#loc5512 = loc(fused["ReadVariableOp:", "MatMul/ReadVariableOp@__inference_predictions_layer_call_and_return_conditional_losses_10410"])
#loc5513 = loc(fused["MatMul:", "MatMul@__inference_predictions_layer_call_and_return_conditional_losses_10410"])
#loc5514 = loc(fused["BiasAdd:", "BiasAdd@__inference_predictions_layer_call_and_return_conditional_losses_10410"])
#loc5515 = loc(fused["Softmax:", "Softmax@__inference_predictions_layer_call_and_return_conditional_losses_10410"])
#loc5516 = loc(fused["NoOp:", "NoOp@__inference_predictions_layer_call_and_return_conditional_losses_10410"])
#loc5517 = loc(fused["Identity:", "Identity@__inference_predictions_layer_call_and_return_conditional_losses_10410"])
#loc5518 = loc(fused["ReadVariableOp:", "BiasAdd/ReadVariableOp@__inference_predictions_layer_call_and_return_conditional_losses_22843"])
#loc5519 = loc(fused["ReadVariableOp:", "MatMul/ReadVariableOp@__inference_predictions_layer_call_and_return_conditional_losses_22843"])
#loc5520 = loc(fused["MatMul:", "MatMul@__inference_predictions_layer_call_and_return_conditional_losses_22843"])
#loc5521 = loc(fused["BiasAdd:", "BiasAdd@__inference_predictions_layer_call_and_return_conditional_losses_22843"])
#loc5522 = loc(fused["Softmax:", "Softmax@__inference_predictions_layer_call_and_return_conditional_losses_22843"])
#loc5523 = loc(fused["NoOp:", "NoOp@__inference_predictions_layer_call_and_return_conditional_losses_22843"])
#loc5524 = loc(fused["Identity:", "Identity@__inference_predictions_layer_call_and_return_conditional_losses_22843"])
#loc5525 = loc(fused["StatefulPartitionedCall:", "StatefulPartitionedCall@__inference_predictions_layer_call_fn_22832"])
#loc5526 = loc(fused["NoOp:", "NoOp@__inference_predictions_layer_call_fn_22832"])
#loc5527 = loc(fused["Identity:", "Identity@__inference_predictions_layer_call_fn_22832"])
